notebooks/lightning_logs/version_2/checkpoints/epoch=24-step=14874.ckpt (torch, 112285 bytes, 21 tensors)

linear1.weight f4 [64, 5]
00000000: d566 a53d 4dea dd3e 5ffb fd3e 3382 c83e
00000010: 7683 95b9 ece6 6e3e 716d f0bd 6d71 e33d
00000020: 9da8 203e 8ca0 853d 226f c8be 37f5 77be
00000030: bbb2 11be 25fd 03be 8358 ca3d fd0a 96be
00000040: 973c c0be c923 c1be a5e9 d1be 0ddd c23e
00000050: 021b 8e3e 7b26 4c3e 6e78 28be b62c 9ebd
00000060: 4782 bcbe 9f90 5abe f41e 5a3e e126 b73e
00000070: 6841 ad3e ea7a 223e 77ad ba3e 1fb4 9f3e
00000080: 3e7d 13be 46a1 b93d bbe2 ba3d 8d1c 8dbe
00000090: 7e42 883e 90c6 703e 4a80 cfbe d00c 87be
000000a0: 3402 66be bf2a 873d 223c 623e d8e9 ae3d
000000b0: 4e67 a2be eb75 8d3e d2f3 1d3e aa03 743e
000000c0: 69d1 a7bd 49e4 62be 0ce1 2f3e eaab cbbe
000000d0: 8a00 cbbe c05b c43e d092 c8be c4b5 d3be
000000e0: 5222 633d 3ae3 553e 922f ce3e b9b4 68be
000000f0: 6993 b8bd 0730 bfbd 7c0e c1be 2d86 753e
00000100: 7e1e cb3e eacc 2b3e 5d0f 95bd 1baf 9cbe
00000110: 9069 e23e 25d3 cdbc 1c63 2f3d 66ba a4bd
00000120: 1907 613e 3833 e4bc 30b1 d4be 8b55 01be
00000130: 1319 abbe ec80 00bd cbf9 ebbe abfb cf3e
00000140: 938c e43d af30 02bf e713 64be c69d a6be
00000150: 72ff 9e3d e340 98be 4e65 c9be 9e95 d23e
00000160: ba54 c7be 3436 a8bd 7079 d93d 0572 a83e
00000170: ada3 14bc ac3e c73e cec0 de3c 12b1 c3be
00000180: d406 fabc e89d 8ebe f7e9 cebd 4b13 e43e
00000190: 6883 b0be 10c9 1f3e e47c c9be 5e22 d33e
000001a0: 28da 3fbe c1e8 f13d ae95 81be ad1f ed3e
000001b0: ea41 993d 2b7c 9f3e a949 1bbe bd04 af3d
000001c0: 27bc c7bc 0600 f83e 95d6 2f3e 7c7b 2a3e
000001d0: dc29 3dbe 778e 113e 4569 42be 1000 c53e
000001e0: de80 443e e7f5 bc3e 0b9b fe3e 97cc be3d
000001f0: 7967 94be 549e 843e 977c 123e 10d0 293e
00000200: 8485 acbe cfc6 8a3b 0073 203e 10f8 823d
00000210: a1ac e1be 80a4 e83d 009c d1ba b7e2 99be
00000220: 7c7a 2d3e 1123 f83b 359a 863e 077a a9be
00000230: 0ac4 b53e a796 aa3e 0289 b8be 3f14 e83e
00000240: d6af 633e 50d3 7ebd ec01 c3bd adc5 78be
00000250: 002a c3bd f0fe 28bd f056 923e 4148 1a3e
00000260: d0db 2b3e b1d0 823e 810b b8be d0df 6e3e
00000270: a888 a23e 7382 e9be 5bf9 00be d1b9 ac3e
00000280: 4ede 593e eb7f 32be d172 14be c3ac 07be
00000290: a229 583e 9906 4bbc 4382 8e3d 95f2 97be
000002a0: 7c9c debe e7ec d93d 9458 22be 8259 24be
000002b0: 4eac 46be 70a1 a63c c039 aabd 27bb a9be
000002c0: a0d2 613c 98ab 42bd 12e1 963e 0e31 86be
000002d0: a06c ddbd 34bc dd3e 1ba6 6abe 49cf c3be
000002e0: 12ac b2be 7034 b7be e045 bb3d d0a0 34be
000002f0: 2cfb 8abe c4f9 c1bd 4ae0 873e 061a 7dbe
00000300: c24d 35be cb33 cfbe 16fc 19be 1f6e d3be
00000310: df41 7c3e 29ba 7abe 5647 a53e e079 873e
00000320: 08fd f73d 868e c03e fd95 803b 3565 a53d
00000330: 1c88 9cbe 3978 853d f3ba f13e 9a9f 023e
00000340: e1f9 913d 0d78 f7bd 1cd8 993e 9a55 c13e
00000350: 8c87 37be d5ba 92be 4d9c 1d3e ff8c 383d
00000360: 3d58 903e e203 b0be fa46 85be ee86 0d3c
00000370: 7998 b4bd b99c 8c3d cd32 3b3e 1cdd d43e
00000380: 85e2 68be eb1b 54be 1a48 6cbd 1315 983e
00000390: 21f9 83be f6fc a43e b621 95be ebf8 933d
000003a0: f245 773e 58d6 5fbe 44d6 9f3e b62c ac3e
000003b0: 1a33 ab3e 2fa3 6cbe 3e33 523e 57a0 b63e
000003c0: 803a e03d 8140 53be db03 d1be c429 ce3e
000003d0: d8a8 3ebd afb5 943e bea8 c8be 17ad f33c
000003e0: f407 ef3b 49d2 d43e 6cba 1d3e c86a 933e
000003f0: f860 96be c6d1 7f3d 60b8 9ebd 2d13 ce3e
0.08076254 0.4334282 0.49605843 0.39161834 -0.0002851744 0.23330277 -0.11739624 0.111056186
0.15689321 0.065247625 -0.39147288 -0.24214636 -0.14228337 -0.12889536 0.098801635 -0.29305258
-0.37546226 -0.37722614 -0.4099857 0.38059273 0.2775498 0.19936554 -0.1645219 -0.07723372
-0.36818144 -0.21344231 0.2130087 0.3577185 0.33838964 0.158672 0.36460468 0.3119211
-0.14403245 0.090639636 0.09125277 -0.27560845 0.2661323 0.23513246 -0.40527564 -0.26376963
-0.22461778 0.0659995 0.22093251 0.08540696 -0.3171944 0.27629027 0.15425041 0.23829523
-0.08194239 -0.22157396 0.17175692 -0.39779598 -0.3964885 0.3835125 -0.3917451 -0.41349614
0.055452652 0.20887461 0.40270668 -0.2272519 -0.09012491 -0.09335332 -0.37706363 0.23976965
0.396717 0.16777387 -0.07278321 -0.30602345 0.44221163 -0.025125096 0.042819127 -0.08043365
0.21975364 -0.027856454 -0.41541433 -0.12630288 -0.33417568 -0.03137295 -0.46089014 0.40621695
0.11159625 -0.50855535 -0.22273217 -0.32542247 0.07763566 -0.29737005 -0.39335102 0.41129774
-0.3893183 -0.082134634 0.106188655 0.3289949 -0.0090722265 0.38915002 0.027191546 -0.3822103
-0.030520834 -0.27854848 -0.10103219 0.4454597 -0.34475255 0.15604043 -0.39353096 0.41237158
-0.18735564 0.118119724 -0.2530951 0.4631323 0.07483275 0.3114942 -0.15164818 0.08545826
-0.02438171 0.48437518 0.171717 0.16648668 -0.18473 0.14214502 -0.1898547 0.3847661
0.19189784 0.3690636 0.49727663 0.09316366 -0.28985193 0.25902045 0.1430534 0.16583276
-0.33695614 0.0042351256 0.15668869 0.063949704 -0.44077018 0.11359501 -0.0015991926 -0.30055782
0.16941255 0.0075725396 0.26289526 -0.33100912 0.35501128 0.33318064 -0.3604203 0.45327947
0.22235045 -0.062213242 -0.09521851 -0.24294157 -0.09529495 -0.041258752 0.28581953 0.15066625
0.1678307 0.25549844 -0.35946277 0.23327565 0.31744885 -0.45607337 -0.12595122 0.33735517
0.21276209 -0.1743161 -0.14496924 -0.13249497 0.21109632 -0.01239171 0.06958439 -0.29677263
-0.43478763 0.10640889 -0.15854102 -0.1604977 -0.19401667 0.020340651 -0.08311796 -0.33150598
0.013783127 -0.047526926 0.2946859 -0.262093 -0.10811734 0.4330765 -0.22914927 -0.38244084
-0.34896904 -0.35782194 0.09144187 -0.1763947 -0.27144754 -0.09471467 0.26538306 -0.24716958
-0.17705444 -0.40469202 -0.1503757 -0.41294953 0.24634503 -0.24485077 0.32280988 0.2646017
0.12108809 0.37608737 0.00392413 0.08075944 -0.30572593 0.06517071 0.47212943 0.12756196
0.07127739 -0.12083445 0.3004769 0.3776062 -0.17922801 -0.28658167 0.15391655 0.04505634
0.2819232 -0.34377962 -0.26030713 0.008638127 -0.08818144 0.0686583 0.18281098 0.41574943
-0.2274266 -0.20713775 -0.05768595 0.29703578 -0.25776008 0.32224244 -0.29127282 0.07225212
0.24147776 -0.2185911 0.3121816 0.33627862 0.33437425 -0.23109125 0.2052736 0.35669205
0.10948658 -0.20630075 -0.40823254 0.4026624 -0.04654774 0.29044864 -0.3919124 0.029745622
0.0072946493 0.41566685 0.15403146 0.28792405 -0.29370856 0.062455915 -0.077500105 0.40249005

linear1.bias f4 [64]
00000000: 8259 d83e cd5e 9e3e 90a4 0ebf f809 f6be
00000010: 3657 89be 6f57 603d e5ef e03b 0068 01bc
00000020: 89f0 b2be 3543 163f 804b a53e 4c25 ea3e
00000030: e481 4e3d dc55 d03d 5c88 b03e 3f3c 1fbf
00000040: 1e99 32bf ae3e 0bbe 7873 523f 3624 93be
00000050: b4b5 b63e fb45 b23e cfb6 5b3e 7610 23bf
00000060: 8856 3a3f f98c f23d 06a9 1dbe e520 9bbe
00000070: 755a 043f aedd c0be 72cb 1a3f 9066 1cbf
00000080: 7d4d cbbe 495b 643e dbce 4abe e9ad b8be
00000090: 941b 033e f091 f43d 888c 9bbe 1ea8 48bf
000000a0: 5a08 fe3e d9b6 d4bb e3d9 da3e 9ae2 2abf
000000b0: 1295 883e b774 263f 0eef 4d3f 6dc7 d33e
000000c0: fdcd 94be 9f4a 23bf 0302 e83e 9c0f 413f
000000d0: 49eb 07bf 6dde 35bb 9a41 863e 5f48 16bf
000000e0: ae5d 2f3e 7e5e 25bf 60d0 243e 5a93 9cbe
000000f0: 9c8a 393f dcf3 6ebe 3928 abbe fc44 9a3d
0.4225579 0.30931702 -0.5571985 -0.4805448 -0.2682435 0.054770883 0.006864535 -0.007898331
-0.3494914 0.586963 0.32284164 0.4573158 0.050416842 0.101726264 0.34479034 -0.62201303
-0.6976489 -0.13598129 0.8220744 -0.28738564 0.35685503 0.34819016 0.21456455 -0.6369699
0.72788286 0.11843295 -0.15396509 -0.30298534 0.51700526 -0.37669128 0.6046668 -0.61094
-0.39707556 0.22300448 -0.19805472 -0.36070183 0.12803489 0.11941898 -0.30380654 -0.78381526
0.49615747 -0.0064915237 0.4274436 -0.66752017 0.26676232 0.6502184 0.80442894 0.41363087
-0.29063407 -0.6378574 0.45314035 0.75414443 -0.5309339 -0.0027750984 0.26221925 -0.5870418
0.1712558 -0.6459731 0.16095114 -0.3058117 0.72477126 -0.23335212 -0.33429125 0.07532689

linear2.weight f4 [64, 64]
00000000: 0670 a5bd 5403 9a3d d815 2ebd 2205 cf3d
00000010: 9e8a 88bd b8a2 c4bd 2065 46bc 1678 f43d
00000020: 6402 3dbd 1884 b83d 785a 433d c057 0a3d
00000030: 3cfa 38bd 801e 373c 4868 f9bd b600 acbd
00000040: 62ff a33d 6c35 f23d 9a2c da3d 3a97 d23d
00000050: ccc0 bcbd d070 1fbd ba16 94bd ee8e babd
00000060: 183b 8d3c 0001 6cbc bedc f8bd 0086 16bd
00000070: 9098 553c e88d abbd 1447 f9bd 3cde 80bd
00000080: ccc8 ba3d a81d d23d a05c a43c d097 54bc
00000090: 4a1b d2bd 10f2 ec3c d22d a2bd b41c b7bd
000000a0: 9c63 23bd 20ee 723d 0094 f23a 24b1 7a3d
000000b0: 48e0 56bd 9429 efbd 7088 e13d 088e 97bc
000000c0: c649 d9bd 10c9 11bc c0a6 c7bb f22d f73d
000000d0: d6bb d63d 98d8 7bbd f0d0 69bd ee16 c8bd
000000e0: c07c a0bc 785c ebbc e038 2cbc 74bf 8f3d
000000f0: b207 b8bd 7472 603d 30bf 47bd 5086 f4bd
00000100: 69cd e9bd 9caa 143d b0f4 33bc 30d6 e1bd
00000110: 45a7 853c 8db0 fc3c 0731 9e3d 8036 bb3c
00000120: d2cb ec3d ff96 cf3d 4025 69bc 2f74 cd3d
00000130: 3d1f cabc 8c88 5f3d 36a6 df3d 60eb 42bc
00000140: c09e e43d 00d5 393d 22d0 863d 44f1 1ebd
00000150: 2070 423c a01d cabb d941 92bb 083c ddbd
00000160: bc7b 60bd c499 87bd a8e1 89bc 6e4e bdbd
00000170: d9e8 933d b0ef 813d f6ea b63d 8b90 3bbd
00000180: 2a87 85bd 7245 f4bd 9437 183d 64e2 7fbd
00000190: 4089 1abb b85d 89bc a05a 0b3d 686f 9fbd
000001a0: 3e02 333c 2aaa 113d 5423 813d 48f6 543d
000001b0: f06f c2bd 1c15 073b 2e89 9e3b 3608 61bd
000001c0: b039 263c 77e7 40bc b76c 12bd 3706 e1bb
000001d0: f847 5ebd 37f3 67bd 60f7 10bd 9a89 ff39
000001e0: fedf 8cbd d8bc 183d 1785 b5bd d688 26bd
000001f0: eb34 ee3d a060 2f3c 21e0 f4bd 0ae8 883d
00000200: 2e9b c03c 7d0b 26bd bba2 00bb b870 a33d
00000210: 18e6 a1bc cfe4 273d 2dfe 013e 2838 123d
00000220: 2ee6 8b3d 0a9e b1bd c650 893d e830 c0bd
00000230: 5f24 e33c 06ae 233d 1ed2 933d 4398 ccbc
00000240: 970b 70bd 4034 e63c b446 86bd b8c3 953d
00000250: e6d7 bf3d b7cd e23a 20f0 ed3d 35c8 c5bd
00000260: 9c00 82bd 65b3 80bd 888d 70bd 60d6 cfbc
00000270: 7547 aabc 385f e83d 0685 86bd 082f c03d
00000280: e905 be3d 9366 953d a0d8 e8bb 8ec5 aa3d
00000290: 84bc a13d e08a d5bc 5891 7d3d f6d7 663d
000002a0: aa5b 973d 94aa 78bd 9865 f53c 90bc 843d
000002b0: 0013 293c e955 f23c 6054 b3bd 1b69 d5bd
000002c0: 2038 533c 8c73 b5bc 20c7 6d3c 1c40 f6bb
000002d0: 8f4c 3c3d 82ae 963d 9289 c43d 8027 cdbd
000002e0: 47b7 bdbd b567 abbd 0261 6cbd ebe1 683d
000002f0: 49b5 dcbd fef5 b23d 5e1d 8b3d 824f 8cbc
00000300: a530 e9bd 1af8 753d 094d d03d 7e3f 013e
00000310: 4886 acbd 3041 ebbc 8201 ec3d a268 88bd
00000320: b2d9 c4bd b9b2 a4bd 00de a1b9 57a3 eebb
00000330: 85a3 3a3d 48b4 933d 057d 053e fb58 9ebc
00000340: db91 e2bb 807b b7bd 916d f0bd ba14 bb3d
00000350: 74e0 353d 8952 c5bd 8b39 09bd c87e 243d
00000360: 4a18 b63d 8ed4 7e3c 703f 0f3d ccb1 4fbd
00000370: 568e 133b 203c 0bbd c049 ad3d 76a0 0a3c
00000380: fa74 cdbd 0328 033e e0e5 a93c f0d8 193d
00000390: d216 b5bd 6209 ec3d dcdb 02bd 3780 263d
000003a0: 11ac 283d 989d a63d c0f9 c63d 90b4 7d3d
000003b0: 5dd7 103c 95d3 08bd a370 cb3c 75b7 bb3d
000003c0: 685e 3dbd 73a1 a3bd c870 d4bd eae7 47bd
000003d0: 87ee c6bc fbec dcbd 6052 463d c6b6 84bd
000003e0: 758b 75bc 5637 21bd fc8a ab3d 00de d1bd
000003f0: 0298 023c 92eb c83d 7478 8a3c aa2b 4bbd
-0.080780074 0.07520166 -0.0425013 0.10108401 -0.06667064 -0.09601349 -0.012109071 0.11936967
-0.046144858 0.0900957 0.0476937 0.03377509 -0.045160517 0.011176705 -0.12178093 -0.08398573
0.08007695 0.11826596 0.10653038 0.102827504 -0.092164606 -0.038925946 -0.07230897 -0.09109293
0.017240092 -0.014404535 -0.12151478 -0.036748886 0.013036862 -0.08376676 -0.1217176 -0.06292388
0.0912033 0.10259563 0.020063698 -0.012975648 -0.10259111 0.028924018 -0.07918896 -0.089410216
-0.039889917 0.059309125 0.0018507242 0.06120409 -0.052459985 -0.11677852 0.110123515 -0.018500343
-0.10609774 -0.008898035 -0.006092876 0.1206931 0.104850456 -0.061485857 -0.057084024 -0.097699985
-0.019590735 -0.028730616 -0.010511607 0.07018939 -0.08985843 0.05479665 -0.048766315 -0.119396806
-0.11416132 0.03629552 -0.010983631 -0.11027181 0.016315112 0.030845905 0.07724195 0.022853136
0.11562313 0.10136222 -0.0142300725 0.10031926 -0.024673099 0.05457358 0.10920374 -0.011896938
0.11163092 0.04536915 0.06582667 -0.038804308 0.011867553 -0.0061680824 -0.004463416 -0.10802466
-0.054805502 -0.06621125 -0.016831234 -0.09243475 0.072221465 0.06344545 0.08931534 -0.045792144
-0.06519921 -0.11927308 0.03716238 -0.062471762 -0.0023580343 -0.016768321 0.034021974 -0.07784921
0.010925828 0.03556267 0.063055664 0.051992685 -0.09494007 0.0020611947 0.0048381304 -0.05493947
0.01014559 -0.0117739355 -0.03574821 -0.006867196 -0.054267853 -0.056628432 -0.035392165 0.0004873991
-0.068786606 0.03728947 -0.088632755 -0.04065784 0.11631187 0.01070419 -0.11956812 0.06684883
0.023511495 -0.0405383 -0.0019628245 0.07980484 -0.019763038 0.040989693 0.12694617 0.035698086
0.06831013 -0.08672722 0.067048594 -0.09384328 0.027727304 0.039960884 0.07217811 -0.024974948
-0.058604803 0.028101087 -0.06556454 0.07312721 0.09367351 0.001730374 0.11618066 -0.09657327
-0.063477725 -0.06284217 -0.058728725 -0.025370777 -0.020786026 0.113462865 -0.06568341 0.093839705
0.09278471 0.07294955 -0.007105902 0.08338462 0.078972846 -0.026067197 0.06190619 0.0563583
0.073905304 -0.06070955 0.02995567 0.06481278 0.010319471 0.02958198 -0.08756328 -0.10420438
0.012891799 -0.022149824 0.014512807 -0.0075149667 0.04597145 0.073575035 0.09596552 -0.100173
-0.09263473 -0.0836939 -0.0577097 0.056856077 -0.10776765 0.087383255 0.06792711 -0.017127756
-0.11386231 0.06005106 0.10170943 0.12621877 -0.084240496 -0.028717607 0.11523725 -0.06660582
-0.096118346 -0.08041901 -0.00030873716 -0.007282655 0.0455661 0.0721212 0.13035972 -0.019329539
-0.00691436 -0.08959103 -0.11739648 0.09134813 0.04440351 -0.09634883 -0.033502143 0.04015997
0.088913515 0.015553607 0.034972608 -0.05070667 0.0022515259 -0.033992887 0.08461332 0.008461108
-0.10032077 0.12808232 0.020739496 0.037560403 -0.08842243 0.11525227 -0.031947955 0.04064962
0.04117972 0.08135527 0.09715605 0.061939776 0.008840409 -0.033404905 0.024833983 0.09165851
-0.04623261 -0.07989778 -0.10373074 -0.048805155 -0.02428366 -0.10787388 0.048418403 -0.06480174
-0.014986862 -0.039359413 0.083761185 -0.10247421 0.007970812 0.098105565 0.01690314 -0.04960219

linear2.bias f4 [64]
00000000: 0615 853d b04c e8bd cbaa c8be 16bd abbe
00000010: d0a5 323c a019 213d 0f16 a03e 46b4 bf3d
00000020: 22b7 003f 40b0 973e e45d 333d c2a7 f73c
00000030: b3c1 063f 3642 e13e a4cd f73e 6f22 bf3e
00000040: e6e3 04be 448a 9b3d ad98 7dbc 9c61 963e
00000050: bff7 b3bd 1329 d1be 839f f8bd e417 a83e
00000060: 04c9 bb3e 0543 dd3e fd15 013f 95cd dd3e
00000070: c143 b83e 3361 9b3e 19f7 3abd 12b0 213c
00000080: 5401 bf3d 301b 56bc 6ef7 a83e 6d06 af3e
00000090: b730 dc3e 9863 713d 4338 023f d6f2 933e
000000a0: 54dc 26bd f6a5 b13e baac 363d e2c0 90be
000000b0: e315 ba3e 5b1e a8be c222 df3d 4099 203e
000000c0: 5285 d73e b064 ab3e bf1f d03e 5f72 9f3e
000000d0: 185b 0c3f 70db a63d 988e 5a3d 934b cfbe
000000e0: aca8 e23e 53e4 f93d 9509 eebe 118d a3be
000000f0: af89 aa3e 7624 f7bd 96e6 e83e a0e4 bb3e
0.064981505 -0.11342752 -0.39192805 -0.335427 0.010903791 0.03933108 0.3126683 0.09360556
0.5027944 0.29626656 0.043790713 0.03023136 0.5263931 0.43995827 0.4839908 0.37330958
-0.12977561 0.075947315 -0.015478295 0.29371345 -0.08787488 -0.4085165 -0.121397994 0.32830727
0.366768 0.43215194 0.50424176 0.4332091 0.35989192 0.30347595 -0.045645807 0.009868639
0.09326425 -0.013068005 0.33001274 0.3418459 0.43005916 0.05893287 0.508671 0.28896207
-0.040737465 0.3469693 0.04459832 -0.28272158 0.36344823 -0.3283566 0.108953014 0.1568346
0.42093903 0.33475256 0.4064922 0.31141946 0.548265 0.08147323 0.053358644 -0.40487346
0.4426931 0.122017525 -0.46491686 -0.31943563 0.3330817 -0.12067501 0.45488423 0.36697865

linear3.weight f4 [64, 64]
00000000: 806c 9cbb e688 93bb 8302 3dbd 6f19 e5bd
00000010: f02b 5f3d ca58 97bd 5de2 533d 00fd 22bc
00000020: f07c e13d c449 eab9 42ef c0bd 4e97 903d
00000030: 63b3 c53d efec a13d 2d0c 613d 175d d03d
00000040: d5e7 53bc 02a5 c23d bed2 b0bc da29 c63d
00000050: f5ec acbd 9c1c a73b 2cdb 77bd 153a b2bd
00000060: 0877 56bc 6080 90bd 0190 42bd 3804 c8bc
00000070: 0448 babd aee7 79bd d016 c23d 9687 eb3b
00000080: 4d1f 28bd baf7 f83d 1537 8dbb d3c2 be3d
00000090: 6b72 fabd 9c92 a73d 0b37 ce3d c898 87bc
000000a0: 54e1 f5bd 32ab 203d 1f24 79bb 0b5c ef3d
000000b0: b6ce 5e3c 4143 41bd 1c88 b4bd d34e e43a
000000c0: 3eab d9bd cdaa e3bd 7e5c a03c de51 273d
000000d0: d243 343d 6680 133d 8cc8 123d ae1d d23d
000000e0: 64df 40bd c85d e73d e864 b63b a655 e1bd
000000f0: e8db 91bd 15f2 a6bd 370e b7bd 126a ac3c
00000100: d6e5 e43d 9415 91bd 9885 d83d e8aa 93bb
00000110: 0036 863a d8a4 b53c 3200 133d 0c44 cfbd
00000120: f933 e43b 5732 eebd e870 cb3c b982 9c3d
00000130: fd93 22bc 9744 083c 5e8d 4c3d 4085 233d
00000140: c76b 0d3d f0e8 d9bc 00fa cc3d 73ff 5abd
00000150: 2b09 12bd 4075 923d 4706 b43d d2bf 393d
00000160: f363 913d 886f 853c b380 bfbd 61b2 363d
00000170: e6bc 863d ca85 9b3d d7ea e0bd ab86 c93d
00000180: 3d9c d7bd cecc 89bd c9d6 54bd a921 cfbd
00000190: a076 c7bd 84b4 013d 3fbd 963d 8ccf e63b
000001a0: 9a3b f13d f248 f93d 58ee 0abc e285 823d
000001b0: dc77 c1bc 0ef8 76bd d944 f6bd 8bfd 36bd
000001c0: 3ba7 de3c 44d3 d3bc f825 18bc 6392 a93c
000001d0: 0d97 623c 5ebf 883c a067 6e3d d6ff a43d
000001e0: d55c df3d fe59 86bd d96d f33d 8f7f acbc
000001f0: f31c a7bc 5323 5f3d 2de5 e2bd f6ca 58bc
00000200: d26d a4bd baeb b7bd c0d5 a0bd d978 8ebc
00000210: e816 acbd e814 d0bd be07 ebbc fcbc 32bd
00000220: 274d 9cbd b37a 083d 24b6 c5bd 1d36 eebb
00000230: b56a 193d 8538 1bbd c568 1fbb e6a8 8abc
00000240: 30ee 983d 240c e43d 4065 023b e0f1 d63c
00000250: 3084 3c3c 9628 eebd f030 a5bd c9e4 acbd
00000260: 33f3 8abd c2a8 31bd 6133 803d f7c7 ad3d
00000270: 287e 183c 1b76 433d 4a62 b73d ba6e d53d
00000280: 16c9 a73d d498 e6bd eb7c 963d 70ea f03d
00000290: 58e5 07bd d0a2 613c bec9 eebd f772 673d
000002a0: 6862 31bd 09c1 8b3d 2a0d d8bd 1d95 40bd
000002b0: aa5a 6dbd 6312 993c 7b81 abbd f4f7 babd
000002c0: 70d3 a93d b334 d7bd 68a7 0c3d 52f2 e83c
000002d0: 49c8 e0bd c001 b7bc e4ed 983d 114f 0f3d
000002e0: 00d6 88bd a244 c1bd 6d6f 9ebd 9c52 8e3c
000002f0: 5e02 b2bd 4c64 91bd 59e5 37bd 1263 2b3c
00000300: 089a cabc ed90 ea3d 82e0 49bd 15d8 e5bd
00000310: 68ff 88bc b0c3 933d c7b3 a63c 7487 463d
00000320: ccea b5bb 5f5f cf3d 8a66 d83d 4387 103d
00000330: 80d5 72bb 1af1 a73d 11c3 64bd 40cf e039
00000340: 3be7 b1bd 4806 9ebd acb2 eb3d a4c0 6ebc
00000350: 1975 2f3d 17cd 18bc f4e9 c83d de37 5ebc
00000360: ff46 c6bd 52fc 16bd 999f 673d 23e5 aa3d
00000370: 436b 863d e6d9 b63d 97fe cdbc 6a83 473d
00000380: e069 d83b 60f2 223d b387 fdbd 2d10 84bd
00000390: 9834 90bc 3759 f1bd 1a1d 653d edb5 6bbb
000003a0: c0cd 06bb 1482 05be 4746 a6bd e4ff adbc
000003b0: 738f c7bd 4635 d2bd 03f5 da3d 8171 a73d
000003c0: fead 893d 3ad9 52bd fdd0 893d f699 e7bc
000003d0: 1217 8abd 06bc c73d d8e2 0cbd 9e88 623d
000003e0: 2145 92bd 917a c6bd 3f44 bb3d 3f51 d7bd
000003f0: e498 42bc 7c22 aabd 054c c53c 40d5 4d3d
-0.0047736764 -0.0045024035 -0.046144973 -0.11186492 0.05448526 -0.07389982 0.05172955 -0.009948015
0.11010158 -0.00044686918 -0.09420635 0.07060109 0.09653356 0.079065196 0.054943252 0.101740055
-0.012933691 0.09504129 -0.021584865 0.09675951 -0.084436335 0.005099846 -0.060511753 -0.087024845
-0.013089903 -0.070557356 -0.047500614 -0.024416074 -0.09095767 -0.061011963 0.094770074 0.007187794
-0.041045476 0.12156625 -0.004309545 0.093145035 -0.12228855 0.081822604 0.10069092 -0.016552344
-0.120058686 0.039225765 -0.0038015915 0.11687478 0.013599088 -0.04718328 -0.08815023 0.0017418511
-0.10628365 -0.11116562 0.019575354 0.04084956 0.04400999 0.036011122 0.035835788 0.10259567
-0.047088042 0.11297184 0.005566228 -0.11002664 -0.07122022 -0.08151642 -0.08938258 0.021046672
0.1117665 -0.07084194 0.10572356 -0.0045064576 0.0010239482 0.02217333 0.03588886 -0.10120401
0.0069642034 -0.11630695 0.024834111 0.07642121 -0.0099229785 0.008317134 0.049939506 0.039922
0.034526613 -0.026600331 0.10008621 -0.05346627 -0.035653275 0.0715127 0.0879026 0.04534895
0.07099142 0.016288534 -0.09350719 0.04460371 0.06578998 0.075938776 -0.10982292 0.09840139
-0.10527847 -0.067285165 -0.051962648 -0.10113842 -0.09739423 0.031666294 0.073603146 0.0070437845
0.11778946 0.12172116 -0.008479677 0.06373192 -0.023616724 -0.060295157 -0.120248504 -0.04467539
0.027179351 -0.025857575 -0.009286396 0.020699685 0.013829959 0.016692813 0.058204293 0.08056609
0.10906378 -0.065601334 0.11886186 -0.021056918 -0.020399546 0.054477047 -0.11078868 -0.013231983
-0.08028759 -0.08980508 -0.078532696 -0.017391609 -0.084028065 -0.101602376 -0.028690215 -0.04363726
-0.07631903 0.03332014 -0.09653881 -0.0072696344 0.03745528 -0.037895698 -0.0024323922 -0.01692624
0.07467306 0.11135128 0.0019896775 0.026238382 0.011506125 -0.11628835 -0.08065975 -0.08442075
-0.06784668 -0.04337383 0.062598 0.08485406 0.009307422 0.047720056 0.08954294 0.1042151
0.08192651 -0.112596184 0.07348045 0.117634654 -0.033177704 0.013771728 -0.11659573 0.056506123
-0.04330674 0.06823928 -0.10549386 -0.047017206 -0.057947792 0.018685525 -0.08374306 -0.091293246
0.08292282 -0.105080985 0.03433934 0.02843586 -0.10975701 -0.022339702 0.07467249 0.034987513
-0.06681442 -0.09436919 -0.077360965 0.017373376 -0.08691858 -0.07099208 -0.044896457 0.010460632
-0.024731651 0.11453424 -0.049286373 -0.11222855 -0.01672335 0.07215059 0.020349396 0.048469022
-0.0055516716 0.101256125 0.10566433 0.035285246 -0.0037053525 0.08200283 -0.055850092 0.00042879023
-0.08686682 -0.07716042 0.11508688 -0.014572296 0.042836282 -0.009326241 0.09810248 -0.013563124
-0.0968151 -0.036861725 0.05654869 0.083444856 0.06563427 0.089282796 -0.025145812 0.04870931
0.006604418 0.039781928 -0.12379398 -0.06448398 -0.017603204 -0.117845945 0.055935957 -0.003596659
-0.0020569414 -0.13037902 -0.08118873 -0.021240182 -0.09744158 -0.10264067 0.106912635 0.08175946
0.067226395 -0.051476695 0.067293145 -0.028271656 -0.067426816 0.097526595 -0.034396023 0.05530607
-0.071420915 -0.096913464 0.09143876 -0.10513543 -0.011877272 -0.083073586 0.0240841 0.0502522

linear3.bias f4 [64]
00000000: 7b10 c33d 99cf dabe 498f b53d 4446 adbd
00000010: 1b01 a1be 0360 c1be a494 8fbd 842f b1bd
00000020: 733e 92be 4bc7 ad3e 1851 3d3d caa9 34be
00000030: b960 a73d 90dc adbe f11e ab3d c9aa 6abd
00000040: b483 a33d 3d30 bb3e 8be0 f03e 2596 d73e
00000050: 1e49 de3e 9c4d b23e 1cbf 273d c205 9f3d
00000060: a0fd e8bd bc3f 453c 2042 bb3e 6ceb c13d
00000070: 9e65 24bd 0e1c d23e 8447 b13e 498c c3be
00000080: 854c 903e 045a eb3e 1b54 a33e 9d6a f13e
00000090: 60d0 3ebc 88d3 cfbe cf8b e83d 2ff9 bdbe
000000a0: 0c45 45be 37ae a9be 526b 8bbc 9d04 fb3e
000000b0: 33b3 953d 6ad0 d0be bb3a c6be cc40 69be
000000c0: 825d b0bd 5c57 dcbd 3313 b5be 60e6 7cbd
000000d0: 279f b03e 1ee0 aa3e 31da 70bd 018b ecbd
000000e0: 9ddd 2bbe 63e8 f03e e058 a23d b899 c5be
000000f0: 77e0 ca3e fa5f 75be 347c c73d f8f1 9c3e
0.09524628 -0.4273651 0.0886522 -0.08460668 -0.31446156 -0.37768564 -0.07010773 -0.08651641
-0.2856327 0.3394111 0.046219915 -0.17642894 0.08172745 -0.33957338 0.08355511 -0.05729178
0.07984105 0.3656024 0.47046313 0.4210674 0.4341516 0.34824836 0.04095374 0.0776477
-0.113765 0.012039121 0.36573887 0.09468731 -0.040135972 0.4103703 0.34624875 -0.38192967
0.2818338 0.45967114 0.31900105 0.47151652 -0.01164636 -0.40591073 0.113547914 -0.37104174
-0.1926462 -0.33140728 -0.017018948 0.49026957 0.0730957 -0.40784007 -0.38716683 -0.22778624
-0.08611585 -0.1075885 -0.3536621 -0.06174314 0.34496424 0.33374113 -0.058801834 -0.115499504
-0.16783758 0.47052297 0.07927108 -0.3859384 0.39624378 -0.23962393 0.09740487 0.30653358

linear4.weight f4 [1, 64]
00000000: 633b 71bd 3aa6 e0bd e289 713d ebfc bcbc
00000010: 68f8 07bd 0d9c 74bd 785c b0bd aaa8 ffbd
00000020: 4fb3 c5bd 9103 653c aebc b23d ee93 c0bd
00000030: eba1 4b3d add4 cfbc 875c 8e3d 8084 84bd
00000040: 53a8 e1bd 85fd e93d 1b35 ad3d 8e2a cd3d
00000050: 5971 fe3b 733f 773d f2d6 b73d d91a f9bd
00000060: 8c79 3bbd ea74 3bbd d2a8 d23d c5e0 69bd
00000070: a58b 21be fedd 103e 0623 573d 1564 3ebd
00000080: 8a10 e03c 8779 683d d8f9 063e 97dd d13d
00000090: c0ae 22bd a798 6dbd 141c a3be 9063 efbd
000000a0: 1a3f d8bd 6892 10bd 75f2 123d 3b8b 893b
000000b0: d819 763d a10f 08be a016 c4bc 13cd 17bd
000000c0: 41e0 dd3c 24ee 1d3d e22b 92bd 691f 98bd
000000d0: f413 2d3d 3f98 433d c782 a7bc 352c fd3d
000000e0: f785 c5bd 3b60 c33d 4821 bbbd 0b57 61bb
000000f0: 9767 dd3d 222a e8bd 2fa1 8ebe 145c a63d
-0.058894526 -0.10969205 0.058969386 -0.02306982 -0.033195883 -0.059719134 -0.08611387 -0.12483342
-0.09653341 0.013977901 0.08727394 -0.09403215 0.049714964 -0.025369966 0.06951242 -0.06470585
-0.110184334 0.11425308 0.08457395 0.10017882 0.007764977 0.060363244 0.089765444 -0.12163324
-0.045770213 -0.045765795 0.10286106 -0.057099123 -0.15775926 0.14147183 0.052523635 -0.046482164
0.027351636 0.056756523 0.13181245 0.10247343 -0.039717436 -0.05800691 -0.3185736 -0.11688912
-0.10558911 -0.035295874 0.035875756 0.004197506 0.06008324 -0.13287212 -0.02393657 -0.03706081
0.027084472 0.038557187 -0.07137276 -0.07427866 0.042255357 0.047752615 -0.020448102 0.123619474
-0.096446924 0.09539839 -0.09137207 -0.0034384157 0.10810774 -0.11336161 -0.27857348 0.08123031

exp_avg f4 [64, 5]
00000000: 407e 843e 123f 923e 0c7b 6a3e 4371 813e
00000010: f0dc 7241 ab3c ce3d a905 e93d 8210 b23d
00000020: 913e c93d dd4b 0a41 d1bd c9be 7836 cebe
00000030: 0ca0 c4be a36a c8be f057 d9c0 2041 1ebd
00000040: 5e51 27bd 6690 13bd c715 1cbd f011 62bf
00000050: 5ea7 293c 2fef 293c 3c94 293c 8bcc 293c
00000060: dc76 123b 5a84 393e 7c11 453e 3ffe 2c3e
00000070: 423d 373e a87e dd40 1517 763d d689 863d
00000080: 432a 613d 7889 743d 3bb3 9f40 0000 0000
00000090: 0000 0000 0000 0000 0000 0000 0000 0000
000000a0: d36d ce3b 0086 ce3b da57 ce3b c852 ce3b
000000b0: a4b2 83b8 3b6d cbbd d9e5 cbbd 98ce cabd
000000c0: d834 cbbd a5ce 2abe 0000 0000 0000 0000
000000d0: 0000 0000 0000 0000 0000 0000 3952 bcb9
000000e0: 7eab b7b9 8b11 b4b9 8158 adb9 2132 a13a
000000f0: f697 d13c 302e df3c 94c0 c63c 7c23 d23c
00000100: 80a4 b93f d4db 0bbf ce0c 0cbf f854 0bbf
00000110: bd58 0bbf e23c 4bc0 b8f1 3c3c a10c 3d3c
00000120: 23de 3c3c 18df 3c3c c5e1 9d38 7233 79be
00000130: 5d67 81be cd67 6ebe ece6 76be c6b9 cbc0
00000140: d9de 1bbd 444b 22bd 2736 11bd 480e 18bd
00000150: 88ce c33d 0000 0000 0000 0000 0000 0000
00000160: 0000 0000 0000 0000 78ee be3c eae0 e43c
00000170: a24c 953c 8e6e b63c 3e86 3940 fe4b 1dbe
00000180: b889 27be 5482 11be 71a7 1abe 442a 96c0
00000190: 0000 0000 0000 0000 0000 0000 0000 0000
000001a0: 0000 0000 4073 113e 5a93 163e ed75 0b3e
000001b0: 1f19 103e c576 2f40 92d5 ca3d 2aab dd3d
000001c0: bb93 b53d d98b c63d 55a5 8540 63b2 d3bd
000001d0: fe66 e6bd f41d bebd b80b cfbd 34cf 9ac0
000001e0: d3b7 bcbe 4a38 bdbe 7e0e bcbe f2b9 bcbe
000001f0: 04f8 64bf 7db3 0f3e 0603 1a3e 0b5e 033e
00000200: c5cb 0c3e 9a69 8740 f8e6 0d00 4be8 0d00
00000210: 45e2 0d00 f8e2 0d00 1474 8600 af06 ce3b
00000220: be23 ce3b 79f1 cd3b 79f2 cd3b d3d6 2938
00000230: c3f9 803e e5f8 893e 9d8e 6d3e 7989 7d3e
00000240: faa7 3341 0000 0000 0000 0000 0000 0000
00000250: 0000 0000 0000 0000 dba2 4bbe a215 4cbe
00000260: a616 4bbe f77c 4bbe 1134 b2be 7059 1ebe
00000270: 18f7 27be 5320 14be 5860 1cbe 4eb8 e5c0
00000280: b816 ffbd 4ae3 07be 3a1a ecbd b909 fbbd
00000290: 8872 91c0 12d6 213d 648b 283d a687 183d
000002a0: 86ca 1e3d 3740 893f 0000 0000 0000 0000
000002b0: 0000 0000 0000 0000 0000 0000 dc24 a11b
000002c0: dc24 a11b dc24 a11b dc24 a11b 508e 2005
000002d0: 0000 0000 0000 0000 0000 0000 0000 0000
000002e0: 0000 0000 0000 0000 0000 0000 0000 0000
000002f0: 0000 0000 0000 0000 0000 0000 0000 0000
00000300: 0000 0000 0000 0000 0000 0000 9f91 1fbd
00000310: 8ead 26bd 325d 17bd 489e 1dbd bbe8 e5bf
00000320: 6833 66bd 6495 66bd 9491 65bd d4dc 65bd
00000330: 0258 acbd 5c40 a2bd 14b4 9fbd 4a07 a0bd
00000340: 38c3 9dbd 1074 883c ac88 afbc 146d 85bc
00000350: 9c52 dcbc f624 b7bc 3802 2740 6ed9 b4bc
00000360: d0d1 c3bc 96b2 85bc 47d1 99bc fd6e 963f
00000370: 78ae 1dbe f204 1ebe 6c3f 1dbe 0288 1dbe
00000380: d518 88be 39e5 c03d 661c c93d 6596 b73d
00000390: 87c3 be3d fcff 5840 b717 353e 100b 3e3e
000003a0: 4ea4 2a3e 4da1 323e 8589 b140 56fa 013d
000003b0: f6c5 1b3d 888c cc3c c61b fa3c 86d6 7840
000003c0: 1775 4500 1775 4500 1775 4500 1775 4500
000003d0: 0000 0000 a1d0 c7bc 751a d2bc 48c5 bbbc
000003e0: a30f c6bc 8682 fcbe b82c 3fbe 34a2 3fbe
000003f0: d29a 3ebe e3fb 3ebe 5c9c a0be 7c09 083d
0.2587757 0.28563744 0.22898501 0.25281724 15.17894 0.10070165 0.11378033 0.08694555
0.09826387 8.643521 -0.3940263 -0.4027593 -0.38403356 -0.39143857 -6.7919846 -0.038636327
-0.040849082 -0.03602638 -0.038106706 -0.8830862 0.010354845 0.010371967 0.010350283 0.010363708
0.0022348678 0.18116894 0.19244951 0.16893862 0.17894462 6.921711 0.060080606 0.06569259
0.054971945 0.059701413 4.9906287 0.0 0.0 0.0 0.0 0.0
0.006299713 0.006302595 0.006297094 0.0062964894 -6.279841e-05 -0.099329434 -0.09955949 -0.09902686
-0.099221885 -0.16680391 0.0 0.0 0.0 0.0 0.0 -0.00035919415
-0.00035032252 -0.00034345346 -0.00033063072 0.0012298265 0.025585156 0.027243704 0.02426175 0.025651686
1.4503326 -0.54632306 -0.5470704 -0.5442653 -0.5443228 -3.175591 0.01153224 0.0115386555
0.011527571 0.011527799 7.528396e-05 -0.24336031 -0.25274172 -0.23281784 -0.24111527 -6.3664274
-0.03805432 -0.03962256 -0.035452034 -0.037122995 0.09560877 0.0 0.0 0.0
0.0 0.0 0.02330707 0.027939279 0.018225018 0.022269513 2.8988185 -0.1536102
-0.1636113 -0.14209872 -0.15102936 -4.6926594 0.0 0.0 0.0 0.0
0.0 0.1420412 0.14704648 0.13619204 0.14072083 2.741624 0.099040166 0.108236626
0.08866068 0.096946426 4.176432 -0.10336759 -0.11250113 -0.09283057 -0.10109657 -4.8377934
-0.36858997 -0.36957008 -0.36729807 -0.36860615 -0.8944094 0.14033313 0.15040216 0.12828843
0.13749607 4.231641 1.276717e-39 1.277192e-39 1.275032e-39 1.275282e-39 1.2347597e-38 0.006287418
0.006290882 0.0062848893 0.0062850085 4.049281e-05 0.25190553 0.26947704 0.23198934 0.24759473
11.22851 0.0 0.0 0.0 0.0 0.0 -0.19886343 -0.19930127
-0.19832858 -0.19871889 -0.3480535 -0.15463805 -0.16402853 -0.14465456 -0.15271127 -7.178748
-0.12455505 -0.13270298 -0.1152844 -0.12257714 -4.545231 0.039510794 0.04114856 0.03723874
0.03876736 1.0722722 0.0 0.0 0.0 0.0 0.0 2.6659036e-22
2.6659036e-22 2.6659036e-22 2.6659036e-22 7.5493025e-36 0.0 0.0 0.0 0.0
0.0 0.0 0.0 0.0 0.0 0.0 0.0 0.0
0.0 0.0 0.0 -0.038957234 -0.04069286 -0.036954112 -0.038481027 -1.7961649
-0.05620137 -0.056294814 -0.056047037 -0.0561188 -0.08415224 -0.07922432 -0.07798019 -0.0781389
-0.07703251 0.016656905 -0.021427475 -0.016287364 -0.02689486 -0.022356492 2.6095104 -0.022076335
-0.023903757 -0.016320508 -0.018776549 1.1752621 -0.15398586 -0.15431574 -0.15356225 -0.15383914
-0.26581445 0.09418721 0.0981987 0.08964232 0.09314638 3.390624 0.17684828 0.18558908
0.1666424 0.17444344 5.548037 0.03173288 0.038030587 0.024969354 0.030530822 3.8880935
6.378653e-39 6.378653e-39 6.378653e-39 6.378653e-39 0.0 -0.024391474 -0.025647381 -0.02292122
-0.024177378 -0.4931833 -0.18669403 -0.1871422 -0.18613747 -0.18650775 -0.31369293 0.03321217

exp_avg_sq f4 [64, 5]
00000000: 3eb6 0141 0c71 0341 62b1 ff40 8e98 0141
00000010: ebd5 e647 a063 fe3f f8a5 0040 e053 fb3f
00000020: 5b3c fe3f f1a5 8e46 0973 0d3f 630e 103f
00000030: 3f79 0a3f e334 0d3f 1e37 1b46 16f7 463d
00000040: ff5b 4a3d 860d 433d 009c 463d 1c68 ac44
00000050: a6ad 113c 75d4 113c 5164 113c a290 113c
00000060: 8b08 483a 0c3e 983f aa5c 9a3f 7bf2 953f
00000070: 011a 983f bc7c 8446 5188 dd3e 5f9a df3e
00000080: 6e60 db3e 1471 dd3e 9c8e bd44 0000 0000
00000090: 0000 0000 0000 0000 0000 0000 0000 0000
000000a0: 4c1d f83b 793e f83b 1ab0 f73b add8 f73b
000000b0: b035 9039 5dcc f53d ccd5 f63d b5df f43d
000000c0: 59d2 f53d 6540 f93e 0000 0000 0000 0000
000000d0: 0000 0000 0000 0000 0000 0000 33cc 493c
000000e0: 3289 4a3c 1d4b 493c abd1 493c 2a1a 343c
000000f0: 2302 453d 9da0 463d 4e5f 433d 62f8 443d
00000100: 8a89 e742 312e 1540 7a20 1640 7c29 1440
00000110: bc23 1540 d536 8542 8aa3 bf3c 3bb9 bf3c
00000120: 5255 bf3c 4971 bf3c cabb 393a 8b3b 633f
00000130: e99f 663f c17c 5f3f aefb 623f b3b8 4c46
00000140: 2347 143d a28a 183d 7a2b 0f3d 28bd 133d
00000150: 7868 0c45 0000 0000 0000 0000 0000 0000
00000160: 0000 0000 0000 0000 99d4 7c3e 6bff 7f3e
00000170: 3772 793e d4a9 7c3e 9f3d 2445 3411 6e3f
00000180: e39d 713f d71e 6a3f 33c0 6d3f f04d 7e46
00000190: 0000 0000 0000 0000 0000 0000 0000 0000
000001a0: 0000 0000 6148 773e 0b8d 7b3e 6e87 723e
000001b0: 6ef7 763e 1d41 9345 175c 7a3f 3af5 7d3f
000001c0: 2070 763f 1a1a 7a3f ab94 8146 f852 583f
000001d0: 4181 5b3f 23cf 543f 360d 583f 20ab 8046
000001e0: c2bf cc3f a7c3 cd3f f5bc cb3f d4b9 cc3f
000001f0: b477 5441 9c97 813f 78b4 833f 1c96 7e3f
00000200: d96e 813f 875e c546 0000 0000 0000 0000
00000210: 0000 0000 0000 0000 0000 0000 9e1e df3b
00000220: 963d df3b b9c1 de3b 2fe6 de3b 8ba7 7739
00000230: 9b96 4340 956d 4640 2476 4040 255c 4340
00000240: 926c 3747 0000 0000 0000 0000 0000 0000
00000250: 0000 0000 0000 0000 4fc4 953e 6562 963e
00000260: bf3c 953e 5cce 953e d2b7 663f 826b 573f
00000270: 7a2a 5a3f a86f 543f 053d 573f 8568 ec45
00000280: 7e09 1f3f 9672 213f 025f 1c3f 1ad5 1e3f
00000290: aa67 2d46 bb9f 2d3d 0c7a 303d 0642 2a3d
000002a0: 4546 2d3d 9995 7b44 0000 0000 0000 0000
000002b0: 0000 0000 0000 0000 0000 0000 0d31 0200
000002c0: 0d31 0200 0d31 0200 0d31 0200 0000 0000
000002d0: 0000 0000 0000 0000 0000 0000 0000 0000
000002e0: 0000 0000 0000 0000 0000 0000 0000 0000
000002f0: 0000 0000 0000 0000 0000 0000 0000 0000
00000300: 0000 0000 0000 0000 0000 0000 0d14 523d
00000310: 11e9 543d f9e2 4e3d 54e2 513d 7f0f df43
00000320: 5566 083d 90e1 083d e0e9 073d fb6a 083d
00000330: 6674 933d 7b50 8f3f e429 903f 2a84 8e3f
00000340: c95b 8f3f c849 8d41 4bd8 dd3e c7fd df3e
00000350: 0a9e db3e b3b7 dd3e 6ef1 8445 13f8 693e
00000360: 830e 703e 4771 623e 662d 693e a5e2 f845
00000370: e135 4f3e 2704 503e 787c 4e3e 783b 4f3e
00000380: 8468 303f 1da9 3e3e 5a5e 413e b2a7 3b3e
00000390: b670 3e3e bdc5 0c45 5d4f 103f e6b1 123f
000003a0: 6ea3 0d3f ec14 103f a295 1f46 8f82 f83e
000003b0: b66e fb3e bb7c f53e 6f66 f83e ef84 be45
000003c0: 0000 0000 0000 0000 0000 0000 0000 0000
000003d0: 0000 0000 5644 ee3c c30b f23c f7d1 e93c
000003e0: f1d6 ed3c 39b3 0444 7afd d53e bae2 d63e
000003f0: 2624 d53e fbfa d53e 6488 e03f fa21 783f
8.106993 8.215099 7.990403 8.099745 118187.836 1.9874153 2.01013 1.9634972
1.9862169 18258.97 0.55253655 0.5627195 0.54091257 0.55158824 9933.779 0.048575483
0.04940414 0.04762032 0.048488617 1379.2534 0.008891499 0.008900751 0.008874015 0.008884581
0.00076306675 1.1893935 1.2059529 1.1714624 1.1882936 16958.367 0.43268064 0.43672463
0.42847008 0.43250334 1516.4565 0.0 0.0 0.0 0.0 0.0
0.007571852 0.0075758067 0.0075588347 0.0075636716 0.0002750582 0.1200187 0.12052497 0.11956731
0.12003011 0.48681942 0.0 0.0 0.0 0.0 0.0 0.012316751
0.0123618115 0.012285975 0.012318055 0.010992566 0.04809774 0.048493017 0.04769831 0.04808844
115.76863 2.3309443 2.3457322 2.315032 2.330306 66.60709 0.023393411 0.023403754
0.023356114 0.023369448 0.00070851727 0.8876273 0.90087754 0.87299734 0.8866528 13102.175
0.036200654 0.037241586 0.03495357 0.036069065 2246.5293 0.0 0.0 0.0
0.0 0.0 0.24690475 0.24999778 0.24359976 0.2467416 2627.8513 0.92995
0.9438154 0.9145331 0.928714 16275.484 0.0 0.0 0.0 0.0
0.0 0.24148704 0.24565522 0.23684475 0.24117824 4712.139 0.9779677 0.9920231
0.9626484 0.9769608 16586.334 0.845016 0.857441 0.83128566 0.8439516 16469.562
1.599602 1.6075333 1.591704 1.599421 13.279224 1.0124393 1.028945 0.994478
1.0111953 25263.264 0.0 0.0 0.0 0.0 0.0 0.00680907
0.0068127615 0.006797996 0.0068023424 0.0002361817 3.0560672 3.1004384 3.0072107 3.052499
46956.57 0.0 0.0 0.0 0.0 0.0 0.29251334 0.29371944
0.29147908 0.29259002 0.9012424 0.8414842 0.85221064 0.82982874 0.84077483 7565.065
0.6212386 0.6306547 0.6108247 0.6204392 11097.916 0.04238866 0.043085143 0.04156687
0.042303342 1006.33746 0.0 0.0 0.0 0.0 0.0 2.01267e-40
2.01267e-40 2.01267e-40 2.01267e-40 0.0 0.0 0.0 0.0 0.0
0.0 0.0 0.0 0.0 0.0 0.0 0.0 0.0
0.0 0.0 0.0 0.051288653 0.051980082 0.050509427 0.051241234 446.12106
0.033300716 0.03341824 0.033182025 0.03330515 0.071999356 1.1196436 1.1262784 1.1134083
1.1199886 17.661026 0.4332908 0.43748304 0.42894012 0.43304214 4254.1787 0.22848539
0.23443036 0.22113524 0.22771224 7964.3306 0.20235397 0.20314084 0.20164669 0.2023753
0.6890948 0.18619199 0.18883649 0.1832569 0.18597683 2252.3586 0.563711 0.573027
0.553275 0.56281924 10213.408 0.48537108 0.49107903 0.47946724 0.4851565 6096.6167
0.0 0.0 0.0 0.0 0.0 0.02908532 0.029546624 0.028542502
0.029033156 530.80035 0.4179495 0.41969854 0.41629142 0.41793045 1.7541623 0.96926844

exp_avg f4 [64]
00000000: 3c1a 05bd 57c5 85bc a240 9d3b e646 153b
00000010: 739d 8d38 9b5d 4ebc abcb e5bb 0000 0000
00000020: b2eb 2138 7967 65ba 0000 0000 83b7 94b7
00000030: 46b6 02bb c446 1abc 69c7 9438 82e1 173c
00000040: 0258 963a 0000 0000 9923 c1bb b528 383c
00000050: 0000 0000 f69b 94bb 956f 32bc 544a 303c
00000060: f0c9 86bb 61a3 39bc 9021 0000 4f93 2238
00000070: 2f22 a2bc 0000 0000 1445 bfba 9118 2b3c
00000080: f34d 153c 0dff cdba 0000 0000 c973 2a18
00000090: 0000 0000 0000 0000 0000 0000 9c06 da3a
000000a0: 4b66 d5b9 6e28 89bb f457 f1bb dbb7 0f3b
000000b0: b441 9aba d7d7 83bb 5c29 12bc 4a7e 04bc
000000c0: f092 0000 a503 b83a 3235 d4ba 5ed8 30bc
000000d0: 0de8 053c a9eb 56b7 0000 0000 aa87 c63a
000000e0: c0c8 72bc a38d f93a 7d56 bdbb b800 943b
000000f0: 0142 45bc 0000 0000 7dc9 1a3b 56c3 7dba
-0.032495722 -0.01632945 0.0047989646 0.0022777854 6.752731e-05 -0.0125955595 -0.0070128045 0.0
3.86049e-05 -0.00087510754 0.0 -1.772843e-05 -0.001994507 -0.009416286 7.094333e-05 0.009270074
0.001147032 0.0 -0.005894136 0.011240174 0.0 -0.0045351936 -0.010890861 0.010759909
-0.0041134283 -0.0113304565 1.204e-41 3.8761e-05 -0.01979169 0.0 -0.001459273 0.010442869
0.009112823 -0.001571627 0.0 2.2030442e-24 0.0 0.0 0.0 0.001663405
-0.0004070274 -0.004185728 -0.007365221 0.0021929655 -0.0011768849 -0.004023533 -0.008920994 -0.00808675
5.2711e-41 0.0014039172 -0.001619017 -0.010793773 0.008173001 -1.2810263e-05 0.0 0.0015146632
-0.01481837 0.0019039403 -0.0057781325 0.0045166872 -0.012039662 0.0 0.0023618632 -0.00096802914

exp_avg_sq f4 [64]
00000000: 0cdd a83a a381 9c39 78af 4c38 184e ca36
00000010: 04f1 4934 6fcc 4639 8d72 7738 0000 0000
00000020: 7893 0334 c2d4 0c36 0000 0000 585c 5434
00000030: fc72 c636 459e bd38 dd85 b834 8d06 0839
00000040: 64c4 3e36 0000 0000 9fc7 1c38 1fcf 1439
00000050: 0000 0000 d636 1338 1823 2539 a271 0c39
00000060: c4ba 0538 3937 2f39 0000 0000 520d f033
00000070: 27a6 023a 0000 0000 d37a b336 dbcf 0639
00000080: 4048 d138 2f8b 8e36 0000 0000 f401 0000
00000090: 0000 0000 0000 0000 0000 0000 6e1f b436
000000a0: 1b90 2435 9b89 fe37 e739 6e38 6bb1 5037
000000b0: bb9d 7a36 cefe f237 0510 bf38 f76d 9438
000000c0: 0000 0000 c8ec 6736 dd44 fc36 d086 1c39
000000d0: b8d7 a238 ba77 6633 0000 0000 84f8 0236
000000e0: c42c 9339 2a75 6437 deef 0838 d9bd c437
000000f0: fec3 f938 0000 0000 9921 1937 a0b2 2335
0.001288326 0.00029851226 4.8800808e-05 6.0291604e-06 1.8807265e-07 0.00018958909 5.8996073e-05 0.0
1.2253975e-07 2.0985467e-06 0.0 1.9777633e-07 5.914246e-06 9.041702e-05 3.437007e-07 0.00012972411
2.842652e-06 0.0 3.737921e-05 0.00014191539 0.0 3.50986e-05 0.000157487 0.00013393772
3.188361e-05 0.00016709873 0.0 1.1178294e-07 0.0004983865 0.0 5.3489143e-06 0.00012856668
9.979354e-05 4.248133e-06 0.0 7e-43 0.0 0.0 0.0 5.368077e-06
6.130446e-07 3.0343237e-05 5.6797548e-05 1.2439074e-05 3.7344714e-06 2.89673e-05 9.1105736e-05 7.0776725e-05
0.0 3.4559507e-06 7.518202e-06 0.00014927541 7.764943e-05 5.365994e-08 0.0 1.9516165e-06
0.00028071378 1.3617138e-05 3.264832e-05 2.3453425e-05 0.000119097516 0.0 9.127333e-06 6.0982165e-07

exp_avg f4 [64, 64]
00000000: 0000 0000 0000 0000 0000 0000 0000 0000
00000010: 0000 0000 0000 0000 0000 0000 0000 0000
00000020: 0000 0000 0000 0000 0000 0000 0000 0000
00000030: 0000 0000 0000 0000 0000 0000 0000 0000
00000040: 0000 0000 0000 0000 0000 0000 0000 0000
00000050: 0000 0000 0000 0000 0000 0000 0000 0000
00000060: 0000 0000 0000 0000 0000 0000 0000 0000
00000070: 0000 0000 0000 0000 0000 0000 0000 0000
00000080: 0000 0000 0000 0000 0000 0000 0000 0000
00000090: 0000 0000 0000 0000 0000 0000 0000 0000
000000a0: 0000 0000 0000 0000 0000 0000 0000 0000
000000b0: 0000 0000 0000 0000 0000 0000 0000 0000
000000c0: 0000 0000 0000 0000 0000 0000 0000 0000
000000d0: 0000 0000 0000 0000 0000 0000 0000 0000
000000e0: 0000 0000 0000 0000 0000 0000 0000 0000
000000f0: 0000 0000 0000 0000 0000 0000 0000 0000
00000100: 30be 923c 43e3 a63b 0000 0000 0000 0000
00000110: ed09 043b 2863 183c 1f45 063c 0000 0000
00000120: bbb5 903a 7259 e33b 0000 0000 440d 2f3b
00000130: fc65 d9ab 5c65 3d3b 9913 9b3a 0000 0000
00000140: 0000 0000 0000 0000 28c0 2c3c 0000 0000
00000150: 0000 0000 0127 c43b 7a51 b43b 35a8 253a
00000160: 13e5 643c 3e6b 423b 8b00 0080 49b2 883a
00000170: 3bb4 2d3c 0000 0000 eca3 243c 3b5f 363a
00000180: aed0 ab11 0000 0000 0000 0000 15d0 5599
00000190: 0000 0000 0000 0000 0000 0000 5ffe 6339
000001a0: 06a2 d93b 70a6 143c 6ad2 4e3b 0400 0080
000001b0: 6eb2 de3b 73c5 1daf 585e 29b4 5bd8 163c
000001c0: b03b 0080 689e 3c3a 3743 253b 752d 7c3c
000001d0: 0000 0000 1dda 213b 0000 0000 d724 45ad
000001e0: 15e3 ec3b 0000 0000 2407 e43b 0a60 9c1e
000001f0: bb1e 173c 0000 0000 0726 763a d69d 633b
00000200: 858e d1be cf73 1bbf 474b f6be d40c 1ec0
00000210: 0000 0000 3ab0 b4bf 76be 61bf 0000 0000
00000220: 0000 0000 0000 0000 0000 0000 0000 0000
00000230: 1f4d 3bc0 d9ca ab3a 0000 0000 f5f2 33c0
00000240: edea 94be 0000 0000 9289 e4be aa36 4ac0
00000250: 0000 0000 96f9 1ec0 cd18 b6bf 6b3b 3ac0
00000260: 0000 0000 e9df cdbd 1508 0080 0000 0000
00000270: 1c72 f6bf 0000 0000 0000 0000 b83f 24c0
00000280: a1d5 c4bf 15fb 1cbf 0000 0000 0000 0000
00000290: 0000 0000 0000 0000 0000 0000 d72d ffbf
000002a0: 0000 0000 7eeb 4311 7756 9ebf 92c3 7bba
000002b0: 0000 0000 e870 18c0 b221 14c0 f816 3ac0
000002c0: 0000 0000 0a42 49c0 0000 0000 304b 7bbf
000002d0: 9129 a4bf 0000 0000 0000 0000 17ca bebf
000002e0: c490 a8bf 703c b63b 7ab2 3cc0 927c a4bf
000002f0: 3cc5 743c 0000 0000 129a 9ebf a44a 2fbf
00000300: 201e 18bd 346f cdbd 2e72 53bd ebdc febe
00000310: aec0 3a37 7146 78be ee2a 19be 0000 0000
00000320: 6ec8 1eb6 8d81 4237 0000 0000 55e2 6738
00000330: 9a2c 0dbf 7b5e 863c d050 26b6 8b30 0cbf
00000340: a78f a33c 0000 0000 a37d 71bd c7aa 1bbf
00000350: 0000 0000 7503 e4be cf47 81be 9ef7 0abf
00000360: bbd8 91b8 e629 4fbc c404 0080 011d 12b6
00000370: 0c94 acbe 0000 0000 3cb9 1638 9138 f7be
00000380: f409 96be fe7d ffbd 0000 0000 5bdd b715
00000390: 0000 0000 0000 0000 0000 0000 1c03 c1be
000003a0: 877e 8338 34a7 da3b ca1b 66be 0020 943c
000003b0: 4bd5 5e37 22b8 e2be aeee dbbe 4cd7 05bf
000003c0: 6700 0000 e0f7 15bf 52d2 6e36 8073 19be
000003d0: cf24 82be 83ff 7238 0000 0000 3b37 90be
000003e0: e8f9 69be c548 b93c 8a2b 09bf a847 7cbe
000003f0: b634 973d 0000 0000 d759 6abe 64ae f2bd
0.0 0.0 0.0 0.0 0.0 0.0 0.0 0.0
0.0 0.0 0.0 0.0 0.0 0.0 0.0 0.0
0.0 0.0 0.0 0.0 0.0 0.0 0.0 0.0
0.0 0.0 0.0 0.0 0.0 0.0 0.0 0.0
0.0 0.0 0.0 0.0 0.0 0.0 0.0 0.0
0.0 0.0 0.0 0.0 0.0 0.0 0.0 0.0
0.0 0.0 0.0 0.0 0.0 0.0 0.0 0.0
0.0 0.0 0.0 0.0 0.0 0.0 0.0 0.0
0.017912954 0.0050930097 0.0 0.0 0.0020147518 0.009300984 0.008195191 0.0
0.0011040488 0.006938153 0.0 0.0026710788 -1.5447084e-12 0.0028899526 0.0011831402 0.0
0.0 0.0 0.0105438605 0.0 0.0 0.005986095 0.005502877 0.0006319315
0.013970631 0.0029665972 -1.95e-43 0.001042911 0.010602052 0.0 0.010048848 0.00069569395
2.7107652e-28 0.0 0.0 -1.1053864e-23 0.0 0.0 0.0 0.00021743168
0.006641629 0.009072885 0.0031558522 -6e-45 0.006796173 -1.4349215e-10 -1.5773674e-07 0.009206857
-2.1412e-41 0.0007195235 0.0025217065 0.015391697 0.0 0.0024696656 0.0 -1.1206334e-11
0.0072292187 0.0 0.006958859 1.6556863e-20 0.009223635 0.0 0.0009389822 0.0034731529
-0.40929046 -0.60723585 -0.48104307 -2.469533 0.0 -1.411628 -0.88181245 0.0
0.0 0.0 0.0 0.0 -2.926582 0.0013106718 0.0 -2.811704
-0.29085484 0.0 -0.44636208 -3.1595864 0.0 -2.4839835 -1.4226319 -2.9098766
0.0 -0.10052473 -2.899e-42 0.0 -1.9253573 0.0 0.0 -2.566389
-1.5377694 -0.6132062 0.0 0.0 0.0 0.0 0.0 -1.9935864
0.0 1.5455354e-28 -1.2370137 -0.00096040324 0.0 -2.3818913 -2.3145566 -2.907652
0.0 -3.1446557 0.0 -0.981616 -1.2825185 0.0 0.0 -1.4905423
-1.3169179 0.005561404 -2.9483933 -1.2850516 0.014939602 0.0 -1.2390769 -0.6847327
-0.037138104 -0.10030976 -0.051622562 -0.49777922 1.1131326e-05 -0.24245621 -0.14957783 0.0
-2.36605e-06 1.15934645e-05 0.0 5.528548e-05 -0.5514618 0.016402474 -2.4782967e-06 -0.5476157
0.01996596 0.0 -0.058957707 -0.6080746 0.0 -0.44533888 -0.25250098 -0.54284084
-6.954508e-05 -0.012644267 -1.71e-42 -2.1772578e-06 -0.337067 0.0 3.59353e-05 -0.48285344
-0.2930447 -0.12475203 0.0 7.426235e-26 0.0 0.0 0.0 -0.37697685
6.270134e-05 0.006672764 -0.22471538 0.018081665 1.3281892e-05 -0.44281107 -0.42955536 -0.5228164
1.44e-43 -0.5858135 3.5587186e-06 -0.14985466 -0.25418708 5.793526e-05 0.0 -0.28167138
-0.22849238 0.022617707 -0.5358206 -0.2463671 0.07383101 0.0 -0.22885834 -0.118496686

exp_avg_sq f4 [64, 64]
00000000: 0000 0000 0000 0000 0000 0000 0000 0000
00000010: 0000 0000 0000 0000 0000 0000 0000 0000
00000020: 0000 0000 0000 0000 0000 0000 0000 0000
00000030: 0000 0000 0000 0000 0000 0000 0000 0000
00000040: 0000 0000 0000 0000 0000 0000 0000 0000
00000050: 0000 0000 0000 0000 0000 0000 0000 0000
00000060: 0000 0000 0000 0000 0000 0000 0000 0000
00000070: 0000 0000 0000 0000 0000 0000 0000 0000
00000080: 0000 0000 0000 0000 0000 0000 0000 0000
00000090: 0000 0000 0000 0000 0000 0000 0000 0000
000000a0: 0000 0000 0000 0000 0000 0000 0000 0000
000000b0: 0000 0000 0000 0000 0000 0000 0000 0000
000000c0: 0000 0000 0000 0000 0000 0000 0000 0000
000000d0: 0000 0000 0000 0000 0000 0000 0000 0000
000000e0: 0000 0000 0000 0000 0000 0000 0000 0000
000000f0: 0000 0000 0000 0000 0000 0000 0000 0000
00000100: 9a89 f73c 7a9c 1f3b 0000 0000 0000 0000
00000110: 1658 033a ed1a 053c 2a88 cf3b 0000 0000
00000120: 4127 2839 742d 953b 0000 0000 ab0d 3c3a
00000130: 68c3 f928 5a36 4b3a 9d98 3139 0000 0000
00000140: 0000 0000 0000 0000 05cc 2a3c 0000 0000
00000150: 0000 0000 27ab 5d3b 253d 393b 1814 8038
00000160: 7067 973c 7785 563a 0000 0000 6f65 1139
00000170: ccc5 2c3c 0000 0000 e33b 1d3c 7b33 a838
00000180: dd83 0409 0000 0000 0000 0000 6601 0000
00000190: 0000 0000 0000 0000 0000 0000 4b3f cc36
000001a0: d66d 893b cfce fd3b fa71 733a 0000 0000
000001b0: 3c4e 8f3b deff 0b2f 481d 1732 e37b 023c
000001c0: 0000 0000 141a ab38 5139 193a 4ae3 b53c
000001d0: 0000 0000 3d9c 203a 0000 0000 09db fb2b
000001e0: 0a53 a13b 0000 0000 417c 953b c2ff c315
000001f0: 8a42 033c 0000 0000 47a9 c838 25ce 973a
00000200: 482e 0b3f 727a e93f 94c4 3640 be79 3d42
00000210: 0000 0000 a2dc 2441 4fec 6b40 0000 0000
00000220: 0000 0000 0000 0000 0000 0000 0000 0000
00000230: 7b54 5e42 fc76 9637 0000 0000 fca7 5f42
00000240: fff4 d53f 0000 0000 c2df 2c3f 4882 8842
00000250: 0000 0000 f00a 1142 2797 3541 127f 5442
00000260: 0000 0000 33d1 fc3c 0000 0000 0000 0000
00000270: 95f8 9d41 0000 0000 0000 0000 13dc 2342
00000280: 7e65 7941 a291 6040 0000 0000 0000 0000
00000290: 0000 0000 0000 0000 0000 0000 b440 c841
000002a0: 0000 0000 cc1e 0000 5957 0e41 d751 713c
000002b0: 0000 0000 f002 1342 923e 0a42 9a3d 4142
000002c0: 0000 0000 4338 7842 0000 0000 acc6 7640
000002d0: 4cac 4341 0000 0000 0000 0000 1dba 6541
000002e0: 1697 1441 3af0 a43c 5a73 4b42 050a 2d41
000002f0: 3165 e23a 0000 0000 53de 1641 4cc4 2340
00000300: c8a5 253f f978 da41 8f13 6842 0b02 5d44
00000310: ac34 b432 1720 2043 ed4d 5742 0000 0000
00000320: b6ab 4930 1039 d938 0000 0000 e689 db35
00000330: 27cf 7344 6318 683a bda1 1630 156b 7d44
00000340: bd64 0d42 0000 0000 2921 b140 7dd0 9844
00000350: 0000 0000 c4c2 1744 cd7f 3943 6fd5 6544
00000360: 3e0e 183a 8e64 243e 0000 0000 d545 0f30
00000370: f496 9c43 0000 0000 062d 4b39 c8d2 3044
00000380: 39b5 8943 48c1 8842 0000 0000 0100 0000
00000390: 0000 0000 0000 0000 0000 0000 bb65 d943
000003a0: 127f 7638 a755 a03a 037c 1443 7ed8 ca3e
000003b0: 2c4e c738 5cd8 2044 96fd 1644 6c9e 4744
000003c0: 0000 0000 de34 8644 465f 6537 50b9 3942
000003d0: 0056 6143 fbec 8235 0000 0000 d68d 7b43
000003e0: 637d 1343 54d7 373f 8ae3 5444 fccf 3e43
000003f0: 5262 823c 0000 0000 6ab6 2143 2629 2442
0.0 0.0 0.0 0.0 0.0 0.0 0.0 0.0
0.0 0.0 0.0 0.0 0.0 0.0 0.0 0.0
0.0 0.0 0.0 0.0 0.0 0.0 0.0 0.0
0.0 0.0 0.0 0.0 0.0 0.0 0.0 0.0
0.0 0.0 0.0 0.0 0.0 0.0 0.0 0.0
0.0 0.0 0.0 0.0 0.0 0.0 0.0 0.0
0.0 0.0 0.0 0.0 0.0 0.0 0.0 0.0
0.0 0.0 0.0 0.0 0.0 0.0 0.0 0.0
0.03021698 0.0024354742 0.0 0.0 0.0005010379 0.008124095 0.0063333707 0.0
0.00016036352 0.0045525376 0.0 0.00071736675 2.7729297e-14 0.00077519345 0.00016936888 0.0
0.0 0.0 0.010424619 0.0 0.0 0.0033823939 0.0028265205 6.1072584e-05
0.01848194 0.000818334 0.0 0.00013866065 0.010545205 0.0 0.009596798 8.020453e-05
1.5950924e-33 0.0 0.0 5.02e-43 0.0 0.0 0.0 6.087042e-06
0.0041940017 0.007745601 0.0009286698 0.0 0.00437334 1.2732879e-10 8.796015e-09 0.007964107
0.0 8.158773e-05 0.00058450276 0.022203106 0.0 0.0006126797 0.0 1.7895417e-12
0.004923229 0.0 0.0045619314 7.916339e-26 0.00801147 0.0 9.5682735e-05 0.0011581822
0.54367495 1.8240492 2.8557482 47.36889 0.0 10.303865 3.6862981 0.0
0.0 0.0 0.0 0.0 55.5825 1.79368e-05 0.0 55.914047
1.6715392 0.0 0.6752893 68.254456 0.0 36.26068 11.349402 53.124092
0.0 0.030861473 0.0 0.0 19.746378 0.0 0.0 40.964916
15.587278 3.5088887 0.0 0.0 0.0 0.0 0.0 25.031593
0.0 1.1048e-41 8.896325 0.014728985 0.0 36.75287 34.561104 48.310158
0.0 62.054943 0.0 3.855876 12.229565 0.0 0.0 14.357938
9.286886 0.02013408 50.862648 10.814946 0.0017272589 0.0 9.429278 2.558856
0.6470609 27.309069 58.0191 884.0319 2.097871e-08 160.12535 53.8261 0.0
7.336739e-10 0.00010357995 0.0 1.6356905e-06 975.23676 0.00088537316 5.4799526e-10 1013.67316
35.348377 0.0 5.535298 1222.5153 0.0 607.0432 185.49922 919.3349
0.0005800462 0.16053984 0.0 5.2122334e-10 313.17932 0.0 0.00019376361 707.29346
275.4158 68.3775 0.0 1e-45 0.0 0.0 0.0 434.79477
5.8769314e-05 0.0012232558 148.48442 0.39618295 9.50362e-05 643.3806 603.9623 798.47534
0.0 1073.6521 1.3671646e-05 46.43097 225.33594 9.754725e-07 0.0 251.55405
147.48979 0.7181294 851.5553 190.81244 0.015916023 0.0 161.71255 41.040184
