notebooks/lightning_logs/version_1/checkpoints/epoch=36-step=22014.ckpt (torch, 112285 bytes, 21 tensors)

linear1.weight f4 [64, 5]
-0.38167936 -0.061525583 0.1971522 -0.117693216 -0.38449946 0.01045264 0.28298262 0.25661647
-0.2739593 0.21689704 0.3199653 -0.42632994 -0.38899398 -0.16642338 -0.15245295 0.13324866
-0.19684136 -0.31099528 0.25592446 0.17824571 -0.44171697 0.28662837 -0.07833946 -0.16669244
-0.29799157 -0.30348855 -0.13862559 0.12045008 -0.35236496 -0.0637013 0.33890724 0.039752625
-0.13020639 -0.05490428 0.00196796 -0.07706202 0.3695367 -0.042343162 0.026304552 0.15776286
-0.31970865 -0.0052065994 -0.15486728 -0.3509855 0.4309392 -0.00059663155 0.37977296 -0.32197183
0.41006258 0.23853627 0.16159022 0.24020511 -0.17830326 0.15610756 -0.1741522 -0.40573177
-0.0687179 -0.12093362 0.37590528 -0.3195721 -0.12958455 0.11400392 0.20178339 0.04599864
0.3993217 -0.43841505 0.41105056 0.065629415 -0.04487984 -0.35022008 0.1099754 0.37887752
-0.13935739 -0.43498978 -0.33812526 -0.024312872 0.24860765 -0.080286995 0.4420508 0.3957955
-0.31550917 -0.046187 -0.038677886 0.26438347 0.4472577 0.23578997 -0.3409662 -0.31187582
-0.31587297 0.2670157 -0.12054688 -0.23747416 -0.27460998 -0.12573153 -0.1071735 0.42376727
-0.25572318 -0.084531836 0.26719877 -0.035614062 0.14594024 0.06491552 0.04681392 0.097941354
0.11860275 0.37019956 -0.19177893 -0.30151185 -0.040388495 -0.10285619 -0.06731069 -0.04621038
-0.15669852 0.0589965 -0.18123925 -0.3420249 -0.33623114 -0.30630326 -0.20927802 0.022056708
0.36025774 0.1583176 -0.30440378 0.05437785 -0.04324243 0.3437239 -0.3149579 0.07064129
0.33750218 5.787055e-05 -0.2064978 -0.05270505 -0.24221152 0.21709108 -0.3936098 -0.28960478
0.2674294 0.09654981 -0.35448283 -0.1380623 0.29344964 0.0656179 -0.24408293 0.16532823
0.38446978 0.24063684 0.36389044 -0.26323313 0.13891064 0.40435034 -0.18453707 0.3220589
0.22315705 -0.36783534 -0.21899524 0.10500795 -0.26456124 -0.43681225 0.24349087 -0.036550343
-0.3811645 -0.43892273 0.25000566 0.004978478 -0.39317808 0.0040443176 -0.18858011 -0.47861663
0.22977181 0.17480451 -0.26613584 0.46097383 0.38240498 0.4545336 -0.31840137 0.16079497
-0.41069558 0.18977684 0.059414536 0.2741854 -0.36547935 -0.24977739 0.065063715 -0.25658703
-0.15747112 -0.37990248 -0.08303225 0.22452289 -0.14147446 -0.11932808 -0.32893583 0.41921943
0.31361407 0.24616408 0.36788952 0.42300242 0.40627202 -0.1882231 -0.42221665 -0.41306
0.274063 -0.02737286 -0.31341982 -0.26288906 0.32565355 0.45058545 0.44789606 -0.15101147
0.47211108 0.2866305 -0.52525216 0.32890102 -0.013188961 -0.38445196 0.01206765 0.10277765
0.34825477 0.33538604 0.42768517 -0.1992974 -0.17288844 0.3058813 0.22948128 -0.032392904
0.22762321 -0.1991892 -0.23029733 0.30630067 0.22922198 -0.18495643 0.3508112 -0.43394038
-0.092913456 0.15923278 0.38383582 0.08409096 -0.39113474 -0.17321233 -0.3189486 0.16082896
-0.3764292 0.24927345 0.4157836 0.32388303 -0.23777139 0.3455549 0.033963323 -0.22379349
-0.35148296 -0.4325296 0.47554874 -0.1967455 0.28313473 0.075589396 -0.23746705 0.1420574
00000000: 7a6b c3be 4002 7cbd 44e2 493e 2409 f1bd
00000010: 1ddd c4be 8d41 2b3c 19e3 903e 3c63 833e
00000020: 6544 8cbe 421a 5e3e 7ed2 a33e eb47 dabe
00000030: 382a c7be e46a 2abe a01c 1cbe 5672 083e
00000040: c890 49be c63a 9fbe 8808 833e 0b86 363e
00000050: ba28 e2be f4c0 923e 7070 a0bd 6cb1 2abe
00000060: 5a92 98be da62 9bbe def3 0dbe 88ae f63d
00000070: 2e69 b4be d475 82bd 4085 ad3e a6d3 223d
00000080: d354 05be 4fe3 60bd e4f8 003b b1d2 9dbd
00000090: ea33 bd3e 0670 2dbd a57c d73c 968c 213e
000000a0: dab0 a3be 1f9c aabb 8795 1ebe 5fb4 b3be
000000b0: 10a4 dc3e 4467 1cba 9a71 c23e 7ed9 a4be
000000c0: b9f3 d13e da42 743e e877 253e 54f8 753e
000000d0: 2195 36be a9da 1f3e f454 32be 13bc cfbe
000000e0: f8bb 8cbd 0cac f7bd a876 c03e f49e a3be
000000f0: d0b1 04be e37a e93d 4ea0 4e3e 1269 3c3d
00000100: e573 cc3e f077 e0be 3875 d23e b768 863d
00000110: ecd3 37bd 0c50 b3be c83a e13d 3cfc c13e
00000120: b4b3 0ebe fbb6 debe c11e adbe ca2b c7bc
00000130: 0193 7e3e 826d a4bd 7c54 e23e b5a5 ca3e
00000140: 6b8a a1be 942e 3dbd b46c 1ebd 455d 873e
00000150: f6fe e43e ed72 713e 1f93 aebe 30ae 9fbe
00000160: 1aba a1be 48b6 883e 48e1 f6bd 6d2c 73be
00000170: ae99 8cbe c4bf 00be c87d dbbd 06f8 d83e
00000180: 26ee 82be 071f adbd 47ce 883e 0de0 11bd
00000190: 5c71 153e 6ef2 843d f4bf 3f3d 7a95 c83d
000001a0: 00e6 f23d cc8a bd3e b261 44be c35f 9abe
000001b0: 686e 25bd 44a6 d2bd 30da 89bd 1847 3dbd
000001c0: 9475 20be 50a6 713d c896 39be e31d afbe
000001d0: 7d26 acbe c8d3 9cbe fa4c 56be 45b0 b43c
000001e0: b473 b83e 021e 223e d0da 9bbe 4fbb 5e3d
000001f0: f91e 31bd 94fc af3e 2942 a1be 61ac 903d
00000200: 16cd ac3e 08ba 7238 2974 53be 40e1 57bd
00000210: 4c06 78be 204d 5e3e 3987 c9be 1447 94be
00000220: 82ec 883e e8bb c53d c67e b5be 3460 0dbe
00000230: 083f 963e ad62 863d e0f0 79be ce4b 293e
00000240: 39d9 c43e 8169 763e d94f ba3e 7ec6 86be
00000250: 973e 0e3e 0207 cf3e 49f7 3cbe e7e4 a43e
00000260: 4883 643e ea54 bcbe 4a40 60be 680e d73d
00000270: 9274 87be dba5 dfbe ac55 793e d0b5 15bd
00000280: fe27 c3be 7bba e0be be00 803e 8022 a33b
00000290: a34e c9be 3286 843b 251b 41be 3d0d f5be
000002a0: 4d49 6b3e f4ff 323e f542 88be c304 ec3e
000002b0: 96ca c33e a1b8 e83e 8105 a3be 70a7 243e
000002c0: b146 d2be dc54 423e a85c 733d 0762 8c3e
000002d0: 1c20 bbbe a5c5 7fbe 2040 853d 605f 83be
000002e0: 1c40 21be 9482 c2be d00c aabd 54e9 653e
000002f0: aede 10be 4862 f4bd 476a a8be eea3 d63e
00000300: 0692 a03e 7012 7c3e 045c bc3e c693 d83e
00000310: e302 d03e 8ebd 40be c82c d8be 9a7c d3be
00000320: fc51 8c3e 0c3d e0bc 9078 a0be 6599 86be
00000330: 10bc a63e 23b3 e63e a252 e53e c0a2 1abe
00000340: 8bb8 f13e 3cc1 923e ed76 06bf b765 a83e
00000350: 8316 58bc e3d6 c4be 65b7 453c 177d d23d
00000360: 734e b23e b8b7 ab3e 8df9 da3e 9e14 4cbe
00000370: ab09 31be 799c 9c3e 24fd 6a3e 6cae 04bd
00000380: 0f16 693e 41f8 4bbe 10d3 6bbe 71d3 9c3e
00000390: 2bb9 6a3e 3865 3dbe 879d b33e 6f2d debe
000003a0: 6949 bebd eb0d 233e 2186 c43e e237 ac3d
000003b0: d042 c8be 935e 31be 3b4d a3be 59b0 243e
000003c0: 54bb c0be 8a41 7f3e 97e1 d43e ffd3 a53e
000003d0: 587a 73be 92ec b03e 201d 0b3d 1f2a 65be
000003e0: 93f5 b3be 8574 ddbe 207b f33e a777 49be
000003f0: 09f7 903e 9dce 9a3d 902a 73be 7f77 113e

linear1.bias f4 [64]
0.34076524 0.84922713 0.40390837 -0.9158587 -0.07965669 -0.11994612 1.0987586 0.5247941
-0.62779903 -0.25583938 0.015091305 0.3911711 -0.5849722 -0.084254846 0.20519179 0.64818424
-0.46011528 -0.38454503 -0.17362353 0.8201536 0.82982194 -0.1143066 -0.21211053 -0.210491
0.18922205 0.80073583 -0.24842748 0.43505895 0.32589188 0.6481061 0.022292072 0.2938546
0.17562073 -0.63961387 0.3948572 0.34677088 0.09726918 0.3863747 0.97150856 -0.3651047
0.51565635 0.71188986 -0.09699406 0.8253794 0.7452874 -0.43522266 -0.99251765 0.5190552
0.15032682 -0.336713 0.08132463 -0.88070446 -0.17101896 -0.059208333 0.8322658 0.18860283
0.28289366 -0.4858672 -0.90725124 0.79450977 0.31421632 -0.96962684 -0.73565805 -1.0618149
00000000: c878 ae3e f366 593f 14cd ce3e b775 6abf
00000010: 0c23 a3bd 50a6 f5bd 1fa4 8c3f e858 063f
00000020: 70b7 20bf 61fd 82be 8541 773c 9447 c83e
00000030: bdc0 15bf ce8d acbd cc1d 523e 67ef 253f
00000040: 3b94 ebbe 16e3 c4be 5eca 31be 96f5 513f
00000050: 366f 543f 9419 eabd 8133 59be f48a 57be
00000060: 6dc3 413e 06fd 4c3f c663 7ebe 0cc0 de3e
00000070: 4ddb a63e 48ea 253f dd9d b63c 1c74 963e
00000080: ecd5 333e bcbd 23bf b92a ca3e f48b b13e
00000090: 1035 c73d e8d2 c53e c9b4 783f 01ef babe
000000a0: 0e02 043f 6a3e 363f d2a4 c6bd 104c 533f
000000b0: 28cb 3e3f 81d5 debe a315 7ebf cde0 043f
000000c0: 46ef 193e a565 acbe 878d a63d d975 61bf
000000d0: 981f 2fbe 7084 72bd 5f0f 553f 1a21 413e
000000e0: 70d7 903e 96c3 f8be 9e41 68bf fe64 4b3f
000000f0: f6e0 a03e 7739 78bf 1654 3cbf 8de9 87bf

linear2.weight f4 [64, 64]
-0.11060594 0.09735426 0.074203596 0.10954128 0.077867284 0.06634852 0.017371006 0.054176204
0.0845209 0.051743057 0.13595158 0.02986689 0.10644242 -0.044091597 0.045930132 0.036958452
-0.004510453 0.125376 -0.07881276 -0.013942502 0.009931047 0.10685901 0.123367906 0.15131205
-0.103505075 -0.1289164 -0.09378366 -0.022782475 -0.021691468 0.06336811 0.02301249 -0.015005633
-0.023953661 0.046554733 -0.062147975 0.061195567 0.112002686 0.0007902235 -0.055998143 0.04014218
-0.07354978 -0.07335165 -0.055918604 -0.087419085 -0.04071662 -0.12296602 0.08777184 -0.10897398
0.023236023 0.103414804 0.03472721 -0.010734845 0.00012487173 0.06811263 -0.06367908 -0.041031502
0.0688535 -0.021963736 -0.061617933 0.03261681 -0.0008962628 -0.00595835 -0.049876947 0.10145619
0.04204403 0.024096623 0.04323393 -0.11489768 0.109838754 0.075216055 -0.06409672 0.11221312
-0.021131337 -0.07557526 -0.013889894 -0.049884275 -0.02671121 0.08153482 0.0025195777 0.07233162
0.09233296 0.031045496 -0.078055754 0.01470992 -0.025552407 0.021738932 -0.07285388 -0.016247287
-0.06338665 0.11102924 0.026260793 0.120437756 -0.014773399 0.049252987 -0.03287907 0.089747205
0.041999847 0.055631295 -0.09715232 0.019191384 -0.05848545 0.10188772 -0.1081693 0.009682223
-0.046961695 0.010979757 0.0973241 -0.08500068 0.04597336 -0.11036204 0.06817286 0.08349252
-0.044443443 0.0941751 -0.061031327 -0.038182497 -0.024498612 -0.102017045 -0.06800468 0.037867934
-0.09439655 -0.03830257 0.023080155 0.04894261 -0.084615305 -0.047538847 -0.074543595 -0.121200114
-0.055480763 0.012007935 0.016379997 -0.00856403 0.09913707 -0.0034950525 0.11494655 0.059892856
0.019835828 0.12917896 0.0005825519 -0.10842325 -0.11430798 0.039304208 -0.12470184 -0.09348793
0.09875421 -0.09321977 -0.062115863 -0.063624896 -0.035897743 -0.016060144 0.086535424 -0.1088665
0.026089635 -0.014058319 0.06459595 -0.11724199 0.12783949 0.06570264 0.08934231 0.05998461
-0.119887784 0.05617919 -0.13041823 -0.08251552 0.021937817 0.081830636 0.03336065 0.15166721
0.07535889 0.06918567 0.011976753 0.07866932 0.049115118 0.11058685 -0.097970545 -0.05451636
-0.01498452 0.090916336 -0.10165145 0.038295746 0.123134896 -0.05862063 0.059875738 0.052911445
-0.01705116 -0.03209448 -0.02782355 0.002219842 -0.09757767 -0.0020301815 0.053974126 0.04013683
-0.118186414 -0.008734897 0.067645505 0.009848535 -0.07065877 0.0338026 -0.010756224 0.11581135
-0.086981624 -0.08254452 0.016151264 -0.086336255 -0.006502196 0.11983007 0.022829756 -0.105921924
0.003072098 -0.02780126 -0.0647874 -0.049620107 0.010911003 -0.0752638 0.06891711 0.08932187
-0.062059507 0.113105685 0.0690586 -0.013630882 -0.02458544 0.11093585 -0.0063263476 -0.068861455
0.021387264 0.017211035 0.04807383 0.059954524 -0.057080418 0.020822093 -0.11508559 0.10319853
-0.10651089 -0.12078869 -0.12052199 -0.11568837 0.123569846 0.0052043647 -0.0129084885 -0.10447621
-0.022897914 -0.02105391 -0.064052716 -0.04482968 -0.10110353 0.07425612 -0.04197173 -0.04045774
-0.07962355 0.105813324 -0.051586375 0.097387776 -0.00049088895 -0.121391684 0.045533404 0.07974483
00000000: 5e85 e2bd ac61 c73d 0ef8 973d 2e57 e03d
00000010: e278 9f3d bce1 873d a44d 8e3c dee7 5d3d
00000020: 4b19 ad3d 87f0 533d e436 0b3e 68ab f43c
00000030: 7cfe d93d 6499 34bd 3c21 3c3d bf61 173d
00000040: 6ccc 93bb 9162 003e 9668 a1bd 186f 64bc
00000050: d5b5 223c e6d8 da3d 50a8 fc3d 8cf1 1a3e
00000060: 78fa d3bd a902 04be a611 c0bd 50a2 babc
00000070: 4eb2 b1bc 24c7 813d b084 bc3c 30da 75bc
00000080: 783a c4bc 2db0 3e3d e08e 7ebd 34a8 7a3d
00000090: aa61 e53d 0027 4f3a 4f5e 65bd 206c 243d
000000a0: 44a1 96bd 6439 96bd e80a 65bd c708 b3bd
000000b0: 78c6 26bd 9cd5 fbbd b9c1 b33d c02d dfbd
000000c0: 7959 be3c 24cb d33d 1e3e 0e3d 34e1 2fbc
000000d0: 00f0 0239 a27e 8b3d 2d6a 82bd a610 28bd
000000e0: 1003 8d3d 4bed b3bc 1663 7cbd 3499 053d
000000f0: 2ef3 6aba 433e c3bb c54b 4cbd 43c8 cf3d
00000100: 5c36 2c3d 4866 c53c 1016 313d 7a4f ebbd
00000110: 24f3 e03d e00a 9a3d 2445 83bd fecf e53d
00000120: a01b adbc 34c7 9abd 7092 63bc 7453 4cbd
00000130: 78d1 dabc bafb a63d 801f 253b 9a22 943d
00000140: 1019 bd3d 2053 fe3c b2db 9fbd e001 713c
00000150: 4853 d1bc d815 b23c 6a34 95bd 0819 85bc
00000160: dcd0 81bd 4c63 e33d e020 d73c 12a8 f63d
00000170: 200c 72bc 80bd 493d 34ac 06bd 62cd b73d
00000180: 0808 2c3d a4dd 633d ccf7 c6bd 4037 9d3c
00000190: 708e 6fbd 82aa d03d de87 ddbd 30a2 1e3c
000001a0: e85a 40bd 70e4 333c dc51 c73d d614 aebd
000001b0: 904e 3c3d 7e05 e2bd 369e 8b3d 20fe aa3d
000001c0: 540a 36bd e0de c03d fcfb 79bd 4065 1cbd
000001d0: 50b1 c8bc 50ee d0bd 0a46 8bbd 681b 1b3d
000001e0: fa52 c1bd 28e3 1cbd 9812 bd3c 0c78 483d
000001f0: ca4a adbd 18b8 42bd 50aa 98bd c437 f8bd
00000200: cc3f 63bd eebc 443c 582f 863c 2550 0cbc
00000210: 6008 cb3d 400d 65bb 1969 eb3d 3652 753d
00000220: bf7e a23c 7d47 043e 65b6 183a 020d debd
00000230: 4d1a eabd 73fd 203d ae63 ffbd 9a76 bfbd
00000240: a63f ca3d 02ea bebd 346d 7ebd c54d 82bd
00000250: 8309 13bd 9090 83bc 7c39 b13d 66f5 debd
00000260: eeb9 d53c dd54 66bc e24a 843d 921c f0bd
00000270: 5be8 023e 1b8f 863d 1af9 b63d 6cb2 753d
00000280: ba87 f5bd 261c 663d 5b8c 05be e6fd a8bd
00000290: f0b6 b33c d296 a73d 2da5 083d a64e 1b3e
000002a0: c355 9a3d 37b1 8d3d 253a 443c 611d a13d
000002b0: ef2c 493d 5c7b e23d c8a4 c8bd 8c4c 5fbd
000002c0: a281 75bc 5832 ba3d a32e d0bd 00dc 1c3d
000002d0: 262e fc3d 301c 70bd 4340 753d acb9 583d
000002e0: e0ae 8bbc 8075 03bd 37ee e3bc c57a 113b
000002f0: cdd6 c7bd cb0c 05bb f913 5d3d 8466 243d
00000300: b80b f2bd d01c 0fbc ba89 8a3d c05b 213c
00000310: 8cb5 90bd 9874 0a3d e03a 30bc 802e ed3d
00000320: 6c23 b2bd 1a0d a9bd a84f 843c 10d1 b0bd
00000330: 6010 d5bb 7869 f53d 7805 bb3c 98ed d8bd
00000340: 4055 493b 78bf e3bc 42af 84bd 743e 4bbd
00000350: 10c4 323c e823 9abd 6a24 8d3d 62ee b63d
00000360: 1c32 7ebd f4a3 e73d 986e 8d3d 1054 5fbc
00000370: 6867 c9bc 5632 e33d 404d cfbb 3c07 8dbd
00000380: 5834 af3c 28fe 8c3c 10e9 443d e092 753d
00000390: 28cd 69bd 1893 aa3c feb1 ebbd c059 d33d
000003a0: 6222 dabd 1060 f7bd 3cd4 f6bd 06ee ecbd
000003b0: 3012 fd3d 6089 aa3b 207e 53bc a0f7 d5bd
000003c0: 6894 bbbc 4079 acbc 122e 83bd 549f 37bd
000003d0: 5e0f cfbd 9813 983d 8cea 2bbd 04b7 25bd
000003e0: ac11 a3bd a8b4 d83d 3c4c 53bd 3e73 c73d
000003f0: 00af 00ba 349c f8bd 3c81 3a3d 4251 a33d

linear2.bias f4 [64]
-0.66909397 -0.115175694 -0.41952175 -0.01675278 0.52613866 0.5218465 -0.6908717 -0.0977879
0.68300515 0.07585901 0.5828519 -0.0456846 0.63367426 -0.48950115 -0.5851518 0.62099254
0.6342591 0.6421465 0.53722286 0.56891656 0.69160134 -0.62546766 0.530995 0.4477824
0.5453617 -0.52799726 0.4916574 0.26429108 0.10547155 0.010584836 0.5256861 0.05346079
0.0069562346 -0.7222599 0.58264464 0.6438157 0.47441953 0.55713356 -0.15671185 0.60291404
0.02503236 0.45189276 0.065509036 -0.67937165 -0.0596287 -0.009277895 0.63629943 0.60002136
0.13805324 0.5203178 0.7128307 -0.6112806 0.03182791 0.1247496 0.65696275 0.5965746
-0.6866487 0.5162511 0.7446676 -0.12489502 -0.6093872 -0.1180527 0.061618175 0.52978283
00000000: be49 2bbf 3ce1 ebbd 8ecb d6be 203d 89bc
00000010: 06b1 063f bb97 053f f8dc 30bf 0645 c8bd
00000020: 6dd9 2e3f f85b 9b3d c835 153f c61f 3bbd
00000030: 7a38 223f e59f fabe 82cc 15bf 5ef9 1e3f
00000040: ce5e 223f b763 243f 7087 093f 84a4 113f
00000050: c90c 313f a61e 20bf 4aef 073f bc43 e53e
00000060: d39c 0b3f d42a 07bf 85ba fb3e 2951 873e
00000070: 7801 d83d 056c 2d3c 5d93 063f b4f9 5a3d
00000080: 20f1 e33b 06e6 38bf 3328 153f 1bd1 243f
00000090: 1ee7 f23e 4ea0 0e3f 1279 20be 9358 1a3f
000000a0: aa10 cd3c 7d5e e73e 9a29 863d 4deb 2dbf
000000b0: 393d 74bd 5002 18bc 85e4 223f 009b 193f
000000c0: d45d 0d3e 8c33 053f 137c 363f e37c 1cbf
000000d0: fc5d 023d b87c ff3d b62e 283f 1db9 183f
000000e0: 36c8 2fbf 0829 043f 89a2 3e3f f6c8 ffbd
000000f0: cd00 1cbf 9dc5 f1bd 5763 7c3d d99f 073f

linear3.weight f4 [64, 64]
0.08911218 -0.061672553 -0.04153731 0.08888291 -0.058613688 -0.0069362633 -0.0010261935 -0.09091622
0.025999429 0.0634955 -0.0026617304 -0.09552117 -0.03136398 0.08934756 -0.116392925 -0.07501931
0.11644563 -0.015750006 0.07214357 0.025424898 0.00629797 -0.14492775 -0.07682044 0.07290485
0.034035273 -0.11368301 -0.045462057 0.06494573 0.036139563 0.027755147 0.060309205 -0.1777634
0.045217186 0.047055926 -0.046247415 0.04614084 0.098252766 -0.053667583 0.012957984 -0.010307792
0.014747533 0.027353691 0.088900074 -0.013507567 -0.07002991 0.022710562 0.028569644 0.05386266
-0.091790855 -0.03894515 0.12531792 0.07524991 0.106117606 -0.0663563 -0.024642231 0.022755029
0.08310366 -0.020894278 0.04656694 0.117724225 -0.09668755 0.008579004 -0.111266464 -0.016019842
0.021198215 -0.09842232 -0.13647217 0.07940383 -0.03634556 -0.060529497 0.12880044 0.058510154
0.06453193 -0.10895383 -0.084423915 -0.05983212 -0.083921455 -0.03241277 0.026870579 -0.0065928707
-0.11013934 -0.10812952 -0.056137256 -0.06333503 -0.04115385 -0.014848032 -0.0034348336 0.16026133
-0.12713505 0.07676472 -0.08893502 0.108587496 0.103417784 -0.11224007 0.067503646 0.16558936
-0.11521387 -0.09577405 0.09265427 -0.006605858 -0.038945727 0.0513068 -0.1234283 0.011122268
-0.092137136 0.02092846 -0.06661631 -0.09282851 0.016795764 -0.061174616 0.024867263 -0.07193105
0.06925935 -0.038438972 0.07544679 -0.10380711 -0.10368566 -0.04033546 -0.11146181 -0.06488759
0.09820498 0.04436002 -0.06380633 0.12479958 0.020494698 -0.01208447 -0.026114091 0.10444911
-0.041516587 -0.052806154 0.012757197 -0.12046228 -0.026727013 -0.14381911 0.10634224 -0.105730325
0.01270363 0.037664622 0.017407538 -0.12341718 0.06530139 -0.006382476 -0.0020072714 -0.04819951
0.052538324 -0.1321999 0.06718233 -0.043988798 0.012247556 -0.070462465 -0.05051253 -0.061221305
-0.018071514 -0.11794349 0.027817553 -0.020963514 0.113437295 0.044190742 -0.04581395 0.007049922
-0.036404535 0.11501911 -0.008056681 0.035264727 0.118030675 0.110562764 -0.041122627 0.015628217
0.009857729 -0.11546404 0.06381507 -0.032503564 -0.025581768 -0.013024792 0.077432685 -0.019033419
-0.08003337 -0.06595351 -0.006754463 0.10093579 0.11400913 -0.06485434 0.024659801 0.040537562
-0.12032895 0.026150933 -0.1130369 -0.061330482 -0.011866319 0.048381325 -0.07291043 -0.00029728623
0.050100096 0.036126763 -0.08955683 -0.060323432 0.012996802 0.037717175 -0.07960507 -0.057474196
-0.015280305 -0.029356956 0.03734396 0.00074949133 -0.12557721 -0.06615394 -0.06159932 0.09761905
0.044904865 0.06580354 0.09421875 -0.07421974 -0.07696729 -0.021044698 0.08513862 0.046114996
0.03364895 0.105693296 -0.058133285 -0.035666857 -0.059178457 -0.053972524 -0.05057755 0.35770753
0.048340186 -0.073201954 -0.1285427 -0.11844935 -0.021498032 0.088699006 0.01364228 0.04907632
-0.07393744 0.101612195 0.100510925 0.100476265 -0.038753077 0.0629984 0.10453185 -0.071992114
0.114992455 0.08283624 -0.0009799551 -0.036508955 -0.102647796 0.09986003 -0.096222386 -0.13479736
0.08949415 0.030783394 0.028368728 0.118507296 0.095427714 0.115083404 -0.09898519 0.009114999
00000000: 7280 b63d 5c9c 7cbd 0723 2abd 3e08 b63d
00000010: e814 70bd 9849 e3bb 5781 86ba 4832 babd
00000020: c1fc d43c ee09 823d 6d70 2ebb 9aa0 c3bd
00000030: 8477 00bd dbfb b63d 6a5f eebd b9a3 99bd
00000040: 0c7b ee3d 2806 81bc 02c0 933d e047 d03c
00000050: 345f ce3b f167 14be 0954 9dbd 234f 953d
00000060: 9268 0b3d a3d2 e8bd 6c36 3abd 4402 853d
00000070: 1407 143d c35e e33c c906 773d 9c07 36be
00000080: a835 393d b7bd 403d ee6d 3dbd 2dfe 3c3d
00000090: bf38 c93d 8ad2 5bbd b94d 543c 03e2 28bc
000000a0: a39f 713c d914 e03c 3e11 b63d d84e 5dbc
000000b0: d76b 8fbd 800b ba3c e30a ea3c 189f 5c3d
000000c0: d8fc bbbd f384 1fbd 5753 003e a01c 9a3d
000000d0: 3054 d93d d0e5 87bd 81de c9bc c168 ba3c
000000e0: 4032 aa3d 7a2a abbc fabc 3e3d 6619 f13d
000000f0: 1f04 c6bd f38e 0c3c acdf e3bd 0b3c 83bc
00000100: e1a7 ad3c a491 c9bd 5cbf 0bbe 7a9e a23d
00000110: 15df 14bd c7ed 77bd 43e4 033e 58a8 6f3d
00000120: 5129 843d 3023 dfbd 72e6 acbd 8612 75bd
00000130: 03df abbd 41c3 04bd b01f dc3c 0209 d8bb
00000140: bc90 e1bd 0373 ddbd 2ef0 65bd ccb5 81bd
00000150: f090 28bd 2945 73bc f21a 61bb 8c1b 243e
00000160: b12f 02be d236 9d3d 9023 b6bd 1f63 de3d
00000170: b4cc d33d 1fde e5bd 5a3f 8a3d 4290 293e
00000180: 40f5 ebbd 2f25 c4bd 86c1 bd3d f475 d8bb
00000190: 8e85 1fbd 1427 523d fac7 fcbd 2c3a 363c
000001a0: 65b2 bcbd 2972 ab3c 226e 88bd e01c bebd
000001b0: 4597 893c 3c92 7abd 6eb6 cb3c 9650 93bd
000001c0: d9d7 8d3d 2f72 1dbd d983 9a3d d298 d4bd
000001d0: 2659 d4bd cc36 25bd 1746 e4bd c9e3 84bd
000001e0: b11f c93d dab2 353d e5ac 82bd ec96 ff3d
000001f0: 7fe4 a73c f1fd 45bc 38ed d5bc 6ae9 d53d
00000200: 4c0d 2abd 444b 58bd 9003 513c eeb4 f6bd
00000210: 9cf2 dabc 5145 13be f6c9 d93d 2489 d8bd
00000220: e322 503c 3846 1a3d 419a 8e3c 25c2 fcbd
00000230: bcbc 853d 1724 d1bb 6d8c 03bb d96c 45bd
00000240: 6d32 573d 695f 07be e496 893d 992d 34bd
00000250: f9a9 483c a04e 90bd 3ae6 4ebd 31c3 7abd
00000260: b60a 94bc 5b8c f1bd a3e1 e33c adbb abbc
00000270: d051 e83d 5a01 353d 69a7 3bbd 0803 e73b
00000280: ec1c 15bd 248f eb3d 2b00 04bc bf71 103d
00000290: 11ba f13d bb6e e23d 3370 28bd bf06 803c
000002a0: 5082 213c 6978 ecbd 7ab1 823d 7522 05bd
000002b0: db90 d1bc f065 55bc 0795 9e3d f9eb 9bbc
000002c0: 89e8 a3bd a212 87bd 8b54 ddbb 6cb7 ce3d
000002d0: 9e7d e93d 5ad2 84bd 5a03 ca3c b70a 263d
000002e0: 066f f6bd 7b3a d63c e47f e7bd ac35 7bbd
000002f0: f36a 42bc 7f2b 463d 1052 95bd 15dd 9bb9
00000300: c235 4d3d a8f9 133d 9269 b7bd b415 77bd
00000310: 8af0 543c 537d 1a3d fc07 a3bd 106a 6bbd
00000320: 3f5a 7abc 007e f0bc fbf5 183d 8379 443a
00000330: 5097 00be b87b 87bd 924f 7cbd 7fec c73d
00000340: 2aee 373d 02c4 863d c3f5 c03d 8500 98bd
00000350: 07a1 9dbd ee65 acbc 285d ae3d 14e3 3c3d
00000360: 7bd3 093d ba75 d83d 2b1d 6ebd 6917 12bd
00000370: 1c65 72bd 4b12 5dbd 682a 4fbd 7125 b73e
00000380: 5c00 463d e8ea 95bd b3a0 03be 9395 f2bd
00000390: a41c b0bc d3a7 b53d df83 5f3c 4004 493d
000003a0: 836c 97bd 0e1a d03d acd8 cd3d 80c6 cd3d
000003b0: 8cbb 1ebd 4e05 813d cb14 d63d 9a70 93bd
000003c0: 2a81 eb3d 0ca6 a93d d671 80ba 6a8a 15bd
000003d0: 0239 d2bd 6a83 cc3d 3e10 c5bd 5208 0abe
000003e0: b548 b73d 752d fc3c 8965 e83c f4b3 f23d
000003f0: 9b6f c33d d9b0 eb3d bfb8 cabd 1457 153c

linear3.bias f4 [64]
0.66278255 -0.64719224 -0.016192647 -0.51770276 0.1093911 0.071436584 -0.04082116 0.733645
0.078285225 0.031522304 0.5882366 0.574471 0.5211458 0.49403328 -0.47023034 0.7185386
0.5751854 0.58276504 -0.6049278 -0.54078835 -0.6197977 -0.53330153 -0.5924223 -0.07194798
0.6726931 -0.61313355 0.71568626 0.6917446 -0.48325512 0.6493027 -0.55754405 -0.32030025
-0.09561544 0.60001075 -0.055682503 -0.002811091 -0.57893956 0.5337766 -0.4993251 -0.10463143
-0.4644026 0.008896877 0.11510579 -0.6736697 0.58809274 -0.102468 0.707537 -0.7103035
0.005276978 -0.56392735 0.5237335 0.12612619 0.48203313 -0.6956503 -0.49274144 -0.41914433
-0.6475376 0.06587817 0.57920444 0.6405276 -0.6670852 0.6819799 0.7477276 0.6497527
00000000: 1eac 293f 64ae 25bf 71a6 84bc 2b88 04bf
00000010: 7108 e03d 584d 923d 1734 27bd 29d0 3b3f
00000020: 0154 a03d 881d 013d ac96 163f 8810 133f
00000030: d069 053f eef1 fc3e 08c2 f0be 25f2 373f
00000040: 5a3f 133f 1730 153f 8cdc 1abf 1b71 0abf
00000050: 10ab 1ebf 7386 08bf fda8 17bf 7659 93bd
00000060: 9d35 2c3f 52f6 1cbf 3737 373f 2d16 313f
00000070: 376d f7be b438 263f 35bb 0ebf 65fe a3be
00000080: 07d2 c3bd 4e9a 193f 5613 64bd 483a 38bb
00000090: 6235 14bf 95a5 083f 8aa7 ffbe 0149 d6bd
000000a0: 2dc6 edbe 35c4 113c 96bc eb3d 9e75 2cbf
000000b0: 3f8d 163f beda d1bd 2521 353f 73d6 35bf
000000c0: 80ea ac3b 8b5d 10bf 6613 063f 3927 013e
000000d0: 0ccd f63e 2316 32bf 9b48 fcbe 169a d6be
000000e0: 06c5 25bf 22eb 863d be46 143f 9ef9 233f
000000f0: 18c6 2abf 3c96 2e3f 136b 3f3f 3156 263f

linear4.weight f4 [1, 64]
0.07821734 -0.027379878 -0.12342967 -0.029123459 0.0073724277 0.015520781 -0.072849214 0.14978497
-0.03010227 -0.14036542 0.07970763 0.118261166 0.037308194 0.043586772 -0.08766104 0.13024375
0.021548329 0.09371415 -0.10301576 -0.022182245 -0.1062629 -0.07732742 -0.104460664 -0.2723262
0.08556678 -0.09958507 0.085832 0.093501166 -0.037077554 0.018051377 -0.056981433 -0.05453342
-0.08296393 0.10568697 -0.15048964 -0.20811875 -0.11291614 0.10639803 -0.049669676 0.078977
-0.00074780197 -0.118874714 -0.071121305 -0.11564692 0.05656596 -0.07437315 0.11322112 -0.052661277
0.067435354 -0.036616605 0.03602321 -0.36150303 0.04290362 -0.022006573 -0.13140255 -0.09330506
-0.021106817 -0.012580633 0.118747376 0.08332795 -0.027697004 0.101693034 0.061548863 0.10862103
00000000: 6a30 a03d c44b e0bc b2c8 fcbd 5294 eebc
00000010: 6894 f13b e04a 7e3c f831 95bd 3b61 193e
00000020: 0999 f6bc f4bb 0fbe c13d a33d e932 f23d
00000030: 7ad0 183d 0b88 323d a287 b3bd 9e5e 053e
00000040: 1f86 b03c 34ed bf3d edf9 d2bd 8ab7 b5bc
00000050: 5da0 d9bd d75d 9ebd 79ef d5bd 576e 8bbe
00000060: a33d af3d 42f3 cbbd b0c8 af3d 8a7d bf3d
00000070: a2de 17bd 7be0 933c 5d65 69bd 6f5e 5fbd
00000080: fee8 a9bd 6972 d83d f519 1abe 151d 55be
00000090: 9440 e7bd 36e7 d93d 6e72 4bbd b2be a13d
000000a0: 2408 44ba 9674 f3bd 0ca8 91bd 4bd8 ecbd
000000b0: b5b1 673d f350 98bd 79e0 e73d 5ab3 57bd
000000c0: 8c1b 8a3d 4bfb 15bd 138d 133d ed16 b9be
000000d0: b5bb 2f3d 2147 b4bc 648e 06be b916 bfbd
000000e0: 34e8 acbc 001f 4ebc d331 f33d d8a7 aa3d
000000f0: d4e4 e2bc 7044 d03d a91a 7c3d b474 de3d

exp_avg f4 [64, 5]
0.0 0.0 0.0 0.0 0.0 -0.49811953 -0.49708825 -0.50949025
-0.5037159 -24.588099 0.0 0.0 0.0 0.0 0.0 0.18923934
0.18855637 0.19567154 0.19252986 14.184351 0.0 0.0 0.0 0.0
0.0 0.0 0.0 0.0 0.0 0.0 -0.6755945 -0.6741382
-0.6915503 -0.6834934 -35.980556 -0.5448006 -0.54363734 -0.55795664 -0.55119354 -30.2417
0.20904863 0.2081749 0.21615104 0.21254316 15.350681 0.046643727 0.046701573 0.04577741
0.045885086 -1.717789 -0.06406701 -0.06463294 -0.06383969 -0.06429662 -0.23598428 0.0
0.0 0.0 0.0 0.0 0.12752153 0.12701356 0.13055024 0.12873904
5.7108235 0.0060118856 0.0060118856 0.0060118856 0.0060118856 3.178461e-13 -4.330731e-27 -4.330731e-27
-4.330731e-27 -4.330731e-27 -6e-45 -0.015844561 -0.015361173 -0.017038342 -0.016052146 -0.76806957
0.26491365 0.26414862 0.27301475 0.2691074 17.188725 0.28725266 0.28542465 0.2987376
0.29247704 23.04044 0.0 0.0 0.0 0.0 0.0 -0.6267561
-0.6300191 -0.62811077 -0.62894773 -3.999626 -0.080790296 -0.080065235 -0.08696246 -0.08413607
-14.190663 0.0 0.0 0.0 0.0 0.0 0.0 0.0
0.0 0.0 0.0 0.5449404 0.5494457 0.5506475 0.5508524 54.010418
-0.11629443 -0.116980456 -0.11619643 -0.11651681 -0.47879678 -0.81576437 -0.8129567 -0.8386743
-0.82662046 -47.88497 0.0 0.0 0.0 0.0 0.0 0.0
0.0 0.0 0.0 0.0 -0.3002676 -0.300123 -0.30554074 -0.3029998
-13.341957 -0.12186754 -0.12170445 -0.12497468 -0.12347053 -7.4419627 0.0021416752 0.0021416752
0.0021416752 0.0021416752 5.2567923e-09 0.0 0.0 0.0 0.0 0.0
0.0 0.0 0.0 0.0 0.0 0.07328107 0.07259285 0.077380225
0.075357966 8.008154 -0.31783116 -0.31884664 -0.31670764 -0.3174436 -0.8565442 -0.24432546
-0.24329567 -0.25150546 -0.24765924 -15.291534 0.0 0.0 0.0 0.0
0.0 0.0 0.0 0.0 0.0 0.0 -0.40954632 -0.40833282
-0.42098308 -0.41509342 -25.939388 -0.014266059 -0.014266239 -0.01426301 -0.014263192 0.0012325856
-0.34060335 -0.3402657 -0.34678823 -0.34377277 -13.066666 -0.5062335 -0.50489223 -0.51944315
-0.5127231 -27.752071 0.1031804 0.10406473 0.104604974 0.1045258 10.422421 -0.33452886
-0.3364101 -0.33446306 -0.33535123 -1.5938339 -0.3761608 -0.37563884 -0.38401005 -0.3801803
-17.258696 -0.0056420146 -0.0056418506 -0.005643472 -0.0056427163 0.00095006573 0.2555744 0.25503296
0.26192442 0.25865746 13.804914 0.011490504 0.011138412 0.012826658 0.011989917 3.051896
-0.2767383 -0.27782086 -0.2753799 -0.27631932 -0.82661915 0.0 0.0 0.0
0.0 0.0 -0.2817477 -0.28278363 -0.2806992 -0.28151596 -0.80534077 0.3283389
00000000: 0000 0000 0000 0000 0000 0000 0000 0000
00000010: 0000 0000 8609 ffbe 5a82 febe f46d 02bf
00000020: 86f3 00bf 6db4 c4c1 0000 0000 0000 0000
00000030: 0000 0000 0000 0000 0000 0000 f5c7 413e
00000040: ec14 413e 1f5e 483e 8c26 453e 1af3 6241
00000050: 0000 0000 0000 0000 0000 0000 0000 0000
00000060: 0000 0000 0000 0000 0000 0000 0000 0000
00000070: 0000 0000 0000 0000 c3f3 2cbf 5294 2cbf
00000080: 7109 31bf 6cf9 2ebf 17ec 0fc2 0d78 0bbf
00000090: d12b 0bbf 3fd6 0ebf 051b 0dbf 00ef f1c1
000000a0: d810 563e cd2b 553e b356 5d3e eaa4 593e
000000b0: 649c 7541 7e0d 3f3d 264a 3f3d 1881 3b3d
000000c0: 00f2 3b3d 83e0 dbbf 9135 83bd 465e 84bd
000000d0: 62be 82bd f2ad 83bd dda5 71be 0000 0000
000000e0: 0000 0000 0000 0000 0000 0000 0000 0000
000000f0: 0195 023e d80f 023e f6ae 053e 2bd4 033e
00000100: 11bf b640 5aff c43b 5aff c43b 5aff c43b
00000110: 5aff c43b 73ee b22a d48e ab93 d48e ab93
00000120: d48e ab93 d48e ab93 0400 0080 74cc 81bc
00000130: 6ead 7bbc fe93 8bbc ca7f 83bc 35a0 44bf
00000140: c3a2 873e 7d3e 873e 97c8 8b3e 72c8 893e
00000150: 8282 8941 c812 933e 2e23 923e 22f4 983e
00000160: 8dbf 953e d252 b841 0000 0000 0000 0000
00000170: 0000 0000 0000 0000 0000 0000 1673 20bf
00000180: ef48 21bf decb 20bf b802 21bf dff9 7fc0
00000190: 6275 a5bd 3ef9 a3bd 6019 b2bd 884f acbd
000001a0: f50c 63c1 0000 0000 0000 0000 0000 0000
000001b0: 0000 0000 0000 0000 0000 0000 0000 0000
000001c0: 0000 0000 0000 0000 0000 0000 3781 0b3f
000001d0: 79a8 0c3f 3cf7 0c3f aa04 0d3f ab0a 5842
000001e0: c62b eebd 7393 efbd 65f8 edbd 5ea0 eebd
000001f0: da24 f5be efd5 50bf ee1d 50bf 5cb3 56bf
00000200: 669d 53bf 368a 3fc2 0000 0000 0000 0000
00000210: 0000 0000 0000 0000 0000 0000 0000 0000
00000220: 0000 0000 0000 0000 0000 0000 0000 0000
00000230: adbc 99be b9a9 99be d66f 9cbe ca22 9bbe
00000240: a878 55c1 b095 f9bd 2f40 f9bd baf2 ffbd
00000250: 1ede fcbd 8f24 eec0 595b 0c3b 595b 0c3b
00000260: 595b 0c3b 595b 0c3b 3c9f b431 0000 0000
00000270: 0000 0000 0000 0000 0000 0000 0000 0000
00000280: 0000 0000 0000 0000 0000 0000 0000 0000
00000290: 0000 0000 6314 963d 8fab 943d 8679 9e3d
000002a0: 4755 9a3d 6621 0041 c4ba a2be de3f a3be
000002b0: 8127 a2be f887 a2be 7b46 5bbf 7430 7abe
000002c0: 8022 79be 53c5 80be 629a 7dbe 20aa 74c1
000002d0: 0000 0000 0000 0000 0000 0000 0000 0000
000002e0: 0000 0000 0000 0000 0000 0000 0000 0000
000002f0: 0000 0000 0000 0000 0eb0 d1be 0011 d1be
00000300: 188b d7be 2087 d4be de83 cfc1 30bc 69bc
00000310: f1bc 69bc 66af 69bc 2ab0 69bc b68e a13a
00000320: 9063 aebe 4e37 aebe 3a8e b1be fc02 b0be
00000330: 1011 51c1 8598 01bf 9e40 01bf 3afa 04bf
00000340: d241 03bf 3e04 dec1 3f50 d33d e41f d53d
00000350: 223b d63d 9f11 d63d 3dc2 2641 5e47 abbe
00000360: f23d acbe be3e abbe 28b3 abbe c002 ccbf
00000370: 2698 c0be bc53 c0be f79c c4be fea6 c2be
00000380: cf11 8ac1 a6e0 b8bb 46df b8bb e0ec b8bb
00000390: 89e6 b8bb d50d 793a a6da 823e ae93 823e
000003a0: f51a 863e c06e 843e eee0 5c41 ab42 3c3c
000003b0: e37d 363c e726 523c 5b71 443c 4452 4340
000003c0: a4b0 8dbe 893e 8ebe 98fe 8cbe ba79 8dbe
000003d0: 509d 53bf 0000 0000 0000 0000 0000 0000
000003e0: 0000 0000 0000 0000 3c41 90be 04c9 90be
000003f0: ceb7 8fbe dc22 90be d02a 4ebf 091c a83e

exp_avg_sq f4 [64, 5]
0.0 0.0 0.0 0.0 0.0 3.3718982 3.4083865 3.3345258
3.3718 25813.506 0.0 0.0 0.0 0.0 0.0 0.7111277
0.7229063 0.6985696 0.7107144 10526.614 0.0 0.0 0.0 0.0
0.0 0.0 0.0 0.0 0.0 0.0 5.1655817 5.232823
5.094661 5.163918 56649.434 3.6222205 3.6694622 3.5718298 3.6206317 41618.66
0.76685804 0.77833086 0.7542881 0.76628417 10392.854 0.08411131 0.08497013 0.08319783
0.084064126 335.3733 0.464917 0.4666507 0.4634678 0.46513635 1.2079378 0.0
0.0 0.0 0.0 0.0 0.2723665 0.2750235 0.26959717 0.27235904
1090.2415 0.00025972337 0.00025974016 0.00025969066 0.0002596949 1.9857973e-09 0.0 0.0
0.0 0.0 0.0 0.25762475 0.26014027 0.25509194 0.25764883 347.53204
1.1600547 1.1769997 1.1417749 1.1592971 13779.463 2.7330775 2.7674718 2.6971235
2.7324917 23916.385 0.0 0.0 0.0 0.0 0.0 5.475892
5.5142636 5.437304 5.4762416 202.54337 0.7312146 0.7448339 0.7157397 0.73013777
12300.385 0.0 0.0 0.0 0.0 0.0 0.0 0.0
0.0 0.0 0.0 2.4631875 2.5349367 2.3740718 2.4530122 126422.76
0.9946031 1.0005329 0.98904324 0.99492383 16.986822 9.774848 9.906623 9.634626
9.770656 97232.625 0.0 0.0 0.0 0.0 0.0 0.0
0.0 0.0 0.0 0.0 0.63860136 0.6458026 0.63132626 0.6385513
6457.049 0.23929654 0.24190909 0.2363367 0.23908694 2163.435 3.100225e-05 3.1004674e-05
3.0996656e-05 3.0997464e-05 3.3044095e-10 0.0 0.0 0.0 0.0 0.0
0.0 0.0 0.0 0.0 0.0 0.29931322 0.303407 0.294949
0.2991252 2900.249 1.3130862 1.3191028 1.3072865 1.312888 7.498006 0.79968953
0.81171507 0.7867672 0.7992331 9678.637 0.0 0.0 0.0 0.0
0.0 0.0 0.0 0.0 0.0 0.0 2.532221 2.5696247
2.4912312 2.5300996 33928.574 0.0151325455 0.015141256 0.0151025215 0.015114119 0.00073241023
1.0829746 1.0935942 1.0720181 1.0829041 6476.2617 4.004744 4.0524993 3.9548683
4.0039644 34714.46 0.1014107 0.1043524 0.09782273 0.101041175 4753.7153 4.9373865
4.9688616 4.909256 4.940399 95.10422 1.6891774 1.706828 1.6710762 1.6890949
12602.662 0.0033657774 0.003367823 0.0033590258 0.0033617092 0.00017147388 1.0733846 1.0844913
1.0618484 1.0732629 7357.5146 0.05007325 0.05072926 0.04933946 0.050031297 351.35275
1.1763133 1.181051 1.172141 1.1763664 4.3420386 0.0 0.0 0.0
0.0 0.0 0.91396594 0.9177039 0.91048676 0.9138808 3.7990315 1.3609616
00000000: 0000 0000 0000 0000 0000 0000 0000 0000
00000010: 0000 0000 2ecd 5740 0123 5a40 df68 5540
00000020: 92cb 5740 03ab c946 0000 0000 0000 0000
00000030: 0000 0000 0000 0000 0000 0000 770c 363f
00000040: 6310 393f 75d5 323f 61f1 353f 757a 2446
00000050: 0000 0000 0000 0000 0000 0000 0000 0000
00000060: 0000 0000 0000 0000 0000 0000 0000 0000
00000070: 0000 0000 0000 0000 724c a540 4973 a740
00000080: 7707 a340 d13e a540 6f49 5d47 76d2 6740
00000090: 78d8 6a40 dc98 6440 6eb8 6740 a992 2247
000000a0: cf50 443f b140 473f 0619 413f 332b 443f
000000b0: 6a63 2246 8d42 ac3d d204 ae3d a063 aa3d
000000c0: d029 ac3d c8af a743 9a09 ee3e d7ec ee3e
000000d0: a74b ed3e 5a26 ee3e b59d 9a3f 0000 0000
000000e0: 0000 0000 0000 0000 0000 0000 0000 0000
000000f0: 9f73 8b3e e1cf 8c3e a408 8a3e a572 8b3e
00000100: ba47 8844 7b2b 8839 bc2d 8839 1727 8839
00000110: a927 8839 8476 0831 0000 0000 0000 0000
00000120: 0000 0000 0000 0000 0000 0000 64e7 833e
00000130: 1b31 853e 699b 823e 8cea 833e 1ac4 ad43
00000140: ac7c 943f eda7 963f ae25 923f d963 943f
00000150: da4d 5746 beea 2e40 421e 3140 ac9d 2c40
00000160: 25e1 2e40 c5d8 ba46 0000 0000 0000 0000
00000170: 0000 0000 0000 0000 0000 0000 823a af40
00000180: d974 b040 65fe ad40 5f3d af40 1a8b 4a43
00000190: e130 3b3f 6fad 3e3f b83a 373f 4fea 3a3f
000001a0: 8a31 4046 0000 0000 0000 0000 0000 0000
000001b0: 0000 0000 0000 0000 0000 0000 0000 0000
000001c0: 0000 0000 0000 0000 0000 0000 dda4 1d40
000001d0: 673c 2240 cbf0 1740 27fe 1c40 61eb f647
000001e0: 4f9e 7e3f 7611 803f f031 7d3f 54b3 7e3f
000001f0: 03e5 8741 c765 1c41 8781 1e41 6e27 1a41
00000200: 9b54 1c41 50e8 bd47 0000 0000 0000 0000
00000210: 0000 0000 0000 0000 0000 0000 0000 0000
00000220: 0000 0000 0000 0000 0000 0000 0000 0000
00000230: 617b 233f 5253 253f 999e 213f 1978 233f
00000240: 64c8 c945 270a 753e 04b7 773e 3f02 723e
00000250: 35d3 743e f636 0745 6a08 0238 040b 0238
00000260: 6802 0238 4603 0238 6ea9 b52f 0000 0000
00000270: 0000 0000 0000 0000 0000 0000 0000 0000
00000280: 0000 0000 0000 0000 0000 0000 0000 0000
00000290: 0000 0000 953f 993e 2a58 9b3e 8e03 973e
000002a0: f026 993e fc43 3545 3513 a83f 5cd8 a83f
000002b0: 2a55 a73f b70c a83f aaef ef40 74b8 4c3f
000002c0: 8fcc 4f3f 9369 493f 8a9a 4c3f 8c3a 1746
000002d0: 0000 0000 0000 0000 0000 0000 0000 0000
000002e0: 0000 0000 0000 0000 0000 0000 0000 0000
000002f0: 0000 0000 0000 0000 e90f 2240 bb74 2440
00000300: 5570 1f40 27ed 2140 9388 0447 7fee 773c
00000310: 0813 783c 9170 773c 36a1 773c 38ff 3f3a
00000320: e99e 8a3f e5fa 8b3f e437 893f 9a9c 8a3f
00000330: 1862 ca45 dd26 8040 13ae 8140 901c 7d40
00000340: 7a20 8040 769a 0747 6ab0 cf3d b6b6 d53d
00000350: 4957 c83d adee ce3d b98d 9445 12ff 9d40
00000360: ea00 9f40 a018 9d40 c017 9e40 5c35 be42
00000370: f736 d83f 5779 da3f d3e5 d53f 4334 d83f
00000380: a6ea 4446 6094 5c3b b2b6 5c3b 1a23 5c3b
00000390: 1f50 5c3b abcd 3339 ab64 893f 9cd0 8a3f
000003a0: a6ea 873f ae60 893f 1eec e545 9c19 4d3d
000003b0: 7cc9 4f3d 2c18 4a3d 9eed 4c3d 27ad af43
000003c0: 6f91 963f ae2c 973f b708 963f 2d93 963f
000003d0: fbf1 8a40 0000 0000 0000 0000 0000 0000
000003e0: 0000 0000 0000 0000 acf9 693f a5ee 6a3f
000003f0: a915 693f 18f4 693f 5523 7340 fd33 ae3f

exp_avg f4 [64]
0.0 -0.021065447 0.0 0.008911791 0.0 0.0 -0.027502336 -0.022661392
0.010319767 0.00012607743 -0.0010559779 0.0 0.005786181 2.55449e-05 -3.5788208e-29 -0.0024488515
0.012129124 0.017547566 0.0 -0.013593758 -0.006090986 0.0 0.0 0.008481246
-0.004144368 -0.0370705 0.0 0.0 -0.0102245305 -0.0054062875 9.139805e-06 0.0
0.0 0.005526158 -0.003448431 -0.011078396 0.0 0.0 -0.018035155 -4.111299e-05
-0.011952794 -0.022431416 0.0016756989 -0.01005649 -0.014812084 -1.27504145e-05 0.011461239 0.0012936129
-0.002871323 0.0 -0.0027063538 0.011995165 -1.5546849e-22 0.0 -0.022643942 -0.002728114
0.0 0.017707033 0.007411847 -0.011747715 -0.01153088 0.00096872746 0.004680963 0.008387732
00000000: 0000 0000 7291 acbc 0000 0000 c302 123c
00000010: 0000 0000 0000 0000 944c e1bc 62a4 b9bc
00000020: 3d14 293c a733 0439 bd68 8aba 0000 0000
00000030: 019a bd3b 4149 d637 c077 3590 e97c 20bb
00000040: 3cb9 463c eabf 8f3c 0000 0000 5bb8 5ebc
00000050: e596 c7bb 0000 0000 0000 0000 edf4 0a3c
00000060: 7bcd 87bb 3dd7 17bd 0000 0000 0000 0000
00000070: ca84 27bc 3a27 b1bb 2a57 1937 0000 0000
00000080: 0000 0000 c614 b53b 12ff 61bb 2982 35bc
00000090: 0000 0000 0000 0000 76be 93bc bd70 2cb8
000000a0: a7d5 43bc 17c2 b7bc 20a3 db3a fac3 24bc
000000b0: 62ae 72bc 9dea 55b7 ecc7 3b3c 728e a93a
000000c0: ce2c 3cbb 0000 0000 155d 31bb 5e87 443c
000000d0: 2bf3 3b9b 0000 0000 ca7f b9bc 28ca 32bb
000000e0: 0000 0000 570e 913c 14df f23b 7d79 40bc
000000f0: 04ec 3cbc 33f2 7d3a c362 993b b36c 093c

exp_avg_sq f4 [64]
0.0 0.00044020766 0.0 8.9952904e-05 0.0 0.0 0.00073137257 0.00051574217
0.00010190751 2.9327116e-06 7.9469855e-06 0.0 3.0438845e-05 5.244839e-09 0.0 1.903345e-05
0.00016153653 0.00033080223 0.0 0.00021483758 6.1205596e-05 0.0 0.0 0.00011405042
2.6908829e-05 0.0013760653 0.0 0.0 8.484045e-05 2.8276974e-05 6.488082e-10 0.0
0.0 3.3076933e-05 2.3292116e-05 0.000110897985 0.0 0.0 0.00036284115 2.533647e-07
0.0001319487 0.0005339547 4.76304e-06 0.00013058315 0.00021470226 5.40893e-08 0.00012686233 2.196735e-06
1.9281844e-05 0.0 1.4792398e-05 0.00015266189 3.004268e-39 0.0 0.00054106425 1.3832796e-05
0.0 0.00029811324 5.593575e-05 0.00012725423 0.00012329678 1.1484646e-05 2.821623e-05 7.186673e-05
00000000: 0000 0000 accb e639 0000 0000 19a5 bc38
00000010: 0000 0000 0000 0000 95b9 3f3a df32 073a
00000020: 2eb7 d538 9acf 4436 0b54 0537 0000 0000
00000030: ec56 ff37 1736 b431 0000 0000 06aa 9f37
00000040: 2262 2939 866f ad39 0000 0000 0646 6139
00000050: 815b 8038 0000 0000 0000 0000 5a2e ef38
00000060: 45ba e137 175d b43a 0000 0000 0000 0000
00000070: 5fec b138 5734 ed37 d157 3230 0000 0000
00000080: 0000 0000 16bc 0a38 7063 c337 e791 e838
00000090: 0000 0000 0000 0000 b73b be39 2e06 8834
000000a0: b65b 0a39 18f9 0b3a 34d2 9f36 26ed 0839
000000b0: b321 6139 d04f 6833 5906 0539 9f6b 1336
000000c0: 72bf a137 0000 0000 de2c 7837 dd13 2039
000000d0: adb6 2000 0000 0000 35d6 0d3a 6813 6837
000000e0: 0000 0000 154c 9c39 8e9c 6a38 8c6f 0539
000000f0: 3a49 0139 2eae 4037 e4b1 ec37 28b7 9638

exp_avg f4 [64, 64]
0.0 4.8520555 0.0 3.875892 0.0 0.0 0.105487965 3.544249
9.26388 5.3537903 -1.4413545e-05 0.0 8.833686 0.0 0.0 8.859962
9.799295 5.6838017 0.0 0.0058781616 2.7090554 0.0 0.0 0.21507634
-0.01314982 0.12305509 0.0 0.0 8.527609 9.0177765 0.0 0.0
0.0 3.7258832 -0.00278046 6.039172 0.0 0.0 8.269617 6e-45
7.0856276 6.6121964 0.13165146 -0.059113286 5.100466 6e-45 8.42411 3.3204286
-0.0003753771 0.0 -0.0006651283 9.692896 0.0 0.0 1.6632707 -0.00030992727
0.0 8.887935 5.8776245 1.6662533 8.975195 5.3983464 0.6463711 8.873164
0.0 0.0 0.0 0.0 0.0 0.0 0.0 0.0
0.0 0.0 0.0 0.0 0.0 0.0 0.0 0.0
0.0 0.0 0.0 0.0 0.0 0.0 0.0 0.0
0.0 0.0 0.0 0.0 0.0 0.0 0.0 0.0
0.0 0.0 0.0 0.0 0.0 0.0 0.0 0.0
0.0 0.0 0.0 0.0 0.0 0.0 0.0 0.0
0.0 0.0 0.0 0.0 0.0 0.0 0.0 0.0
0.0 0.0 0.0 0.0 0.0 0.0 0.0 0.0
0.0 -2.8683906 0.0 -2.276735 0.0 0.0 -0.07092176 -2.0995154
-5.4237013 -3.1752148 -0.0061950716 0.0 -5.21072 2.121587e-06 -2.2584372e-30 -5.2431097
-5.7611256 -3.3213725 0.0 -0.014020212 -1.6113019 0.0 0.0 -0.12878422
0.003141299 -0.093163304 0.0 0.0 -5.0325747 -5.331103 2.060401e-06 0.0
0.0 -2.1792073 -0.017632471 -3.5529196 0.0 0.0 -4.898205 -0.0011786638
-4.1555085 -3.9525938 -0.0782733 0.014039371 -3.0173748 -0.0005610097 -4.9575973 -1.9275606
-0.010245573 0.0 -0.010675044 -5.685788 -6.902927e-24 0.0 -1.0043334 -0.005259752
0.0 -5.2047844 -3.4631073 -0.9717703 -5.321144 -3.1481988 -0.3745477 -5.197805
0.0 0.0 0.0 0.0 0.0 0.0 0.0 0.0
0.0 0.0 0.0 0.0 0.0 0.0 0.0 0.0
0.0 0.0 0.0 0.0 0.0 0.0 0.0 0.0
0.0 0.0 0.0 0.0 0.0 0.0 0.0 0.0
0.0 0.0 0.0 0.0 0.0 0.0 0.0 0.0
0.0 0.0 0.0 0.0 0.0 0.0 0.0 0.0
0.0 0.0 0.0 0.0 0.0 0.0 0.0 0.0
0.0 0.0 0.0 0.0 0.0 0.0 0.0 0.0
00000000: 0000 0000 0a44 9b40 0000 0000 9d0e 7840
00000010: 0000 0000 0000 0000 130a d83d fad4 6240
00000020: da38 1441 4052 ab40 b4d1 71b7 0000 0000
00000030: c756 0d41 0000 0000 0000 0000 68c2 0d41
00000040: eac9 1c41 b4e1 b540 0000 0000 989d c03b
00000050: 2a61 2d40 0000 0000 0000 0000 f93c 5c3e
00000060: 5872 57bc 4f04 fc3d 0000 0000 0000 0000
00000070: 1671 0841 d048 1041 0000 0000 0000 0000
00000080: 0000 0000 df74 6e40 6138 36bb e640 c140
00000090: 0000 0000 0000 0000 5a50 0441 0400 0000
000000a0: 76bd e240 1d97 d340 a4cf 063e c620 72bd
000000b0: 0437 a340 0400 0000 28c9 0641 e781 5440
000000c0: 43ce c4b9 0000 0000 015c 2eba 1a16 1b41
000000d0: 0000 0000 0000 0000 0ee6 d43f bc7d a2b9
000000e0: 0000 0000 fb34 0e41 8015 bc40 ca47 d53f
000000f0: 669a 0f41 41bf ac40 9478 253f 7bf8 0d41
00000100: 0000 0000 0000 0000 0000 0000 0000 0000
00000110: 0000 0000 0000 0000 0000 0000 0000 0000
00000120: 0000 0000 0000 0000 0000 0000 0000 0000
00000130: 0000 0000 0000 0000 0000 0000 0000 0000
00000140: 0000 0000 0000 0000 0000 0000 0000 0000
00000150: 0000 0000 0000 0000 0000 0000 0000 0000
00000160: 0000 0000 0000 0000 0000 0000 0000 0000
00000170: 0000 0000 0000 0000 0000 0000 0000 0000
00000180: 0000 0000 0000 0000 0000 0000 0000 0000
00000190: 0000 0000 0000 0000 0000 0000 0000 0000
000001a0: 0000 0000 0000 0000 0000 0000 0000 0000
000001b0: 0000 0000 0000 0000 0000 0000 0000 0000
000001c0: 0000 0000 0000 0000 0000 0000 0000 0000
000001d0: 0000 0000 0000 0000 0000 0000 0000 0000
000001e0: 0000 0000 0000 0000 0000 0000 0000 0000
000001f0: 0000 0000 0000 0000 0000 0000 0000 0000
00000200: 0000 0000 b693 37c0 0000 0000 07b6 11c0
00000210: 0000 0000 0000 0000 6d3f 91bd 765e 06c0
00000220: f68e adc0 b836 4bc0 0700 cbbb 0000 0000
00000230: 38be a6c0 9660 0e36 e839 378e 8ec7 a7c0
00000240: 245b b8c0 5e91 54c0 0000 0000 08b5 65bc
00000250: 243f cebf 0000 0000 0000 0000 03e0 03be
00000260: 40de 4d3b 67cc bebd 0000 0000 0000 0000
00000270: da0a a1c0 6598 aac0 6b45 0a36 0000 0000
00000280: 0000 0000 2278 0bc0 f971 90bc 0963 63c0
00000290: 0000 0000 0000 0000 18be 9cc0 657d 9aba
000002a0: edf9 84c0 4cf7 7cc0 c04d a0bd 6405 663c
000002b0: ab1c 41c0 b910 13ba a3a4 9ec0 4eba f6bf
000002c0: 0cdd 27bc 0000 0000 61e6 2ebc faf1 b5c0
000002d0: a485 0599 0000 0000 ff8d 80bf ff59 acbb
000002e0: 0000 0000 988d a6c0 8da3 5dc0 f0c5 78bf
000002f0: d046 aac0 177c 49c0 b7c4 bfbe 6b54 a6c0
00000300: 0000 0000 0000 0000 0000 0000 0000 0000
00000310: 0000 0000 0000 0000 0000 0000 0000 0000
00000320: 0000 0000 0000 0000 0000 0000 0000 0000
00000330: 0000 0000 0000 0000 0000 0000 0000 0000
00000340: 0000 0000 0000 0000 0000 0000 0000 0000
00000350: 0000 0000 0000 0000 0000 0000 0000 0000
00000360: 0000 0000 0000 0000 0000 0000 0000 0000
00000370: 0000 0000 0000 0000 0000 0000 0000 0000
00000380: 0000 0000 0000 0000 0000 0000 0000 0000
00000390: 0000 0000 0000 0000 0000 0000 0000 0000
000003a0: 0000 0000 0000 0000 0000 0000 0000 0000
000003b0: 0000 0000 0000 0000 0000 0000 0000 0000
000003c0: 0000 0000 0000 0000 0000 0000 0000 0000
000003d0: 0000 0000 0000 0000 0000 0000 0000 0000
000003e0: 0000 0000 0000 0000 0000 0000 0000 0000
000003f0: 0000 0000 0000 0000 0000 0000 0000 0000

exp_avg_sq f4 [64, 64]
0.0 1035.3772 0.0 687.7421 0.0 0.0 0.255472 550.2974
3977.5466 1261.2723 2.421215e-08 0.0 3486.606 0.0 0.0 3452.8696
4341.927 1516.938 0.0 0.020842047 314.35846 0.0 0.0 7.203999
0.0027434814 0.46854988 0.0 0.0 3237.861 3598.3877 0.0 0.0
0.0 651.452 0.0001534071 1635.8586 0.0 0.0 2990.569 3.1765253e-38
2289.5388 1856.2153 2.2433367 0.046925623 1141.8374 2.6527405e-37 3203.9302 540.1992
4.860999e-06 0.0 8.509283e-06 4301.3574 0.0 0.0 111.56007 1.7735462e-06
0.0 3656.0544 1553.5952 127.72821 3526.724 1393.0066 26.757818 3651.2168
0.0 0.0 0.0 0.0 0.0 0.0 0.0 0.0
0.0 0.0 0.0 0.0 0.0 0.0 0.0 0.0
0.0 0.0 0.0 0.0 0.0 0.0 0.0 0.0
0.0 0.0 0.0 0.0 0.0 0.0 0.0 0.0
0.0 0.0 0.0 0.0 0.0 0.0 0.0 0.0
0.0 0.0 0.0 0.0 0.0 0.0 0.0 0.0
0.0 0.0 0.0 0.0 0.0 0.0 0.0 0.0
0.0 0.0 0.0 0.0 0.0 0.0 0.0 0.0
0.0 314.45026 0.0 209.69014 0.0 0.0 0.06262976 166.95177
1215.933 382.2516 0.00027126627 0.0 1060.6146 1.1444565e-10 0.0 1048.1586
1323.0713 464.47342 0.0 0.008781928 95.12034 0.0 0.0 2.3696148
0.0013611679 0.095251605 0.0 0.0 984.44763 1092.772 1.2010598e-10 0.0
0.0 199.38718 0.0027809266 498.15018 0.0 0.0 907.38446 4.0488598e-05
698.5799 560.16766 0.7302899 0.024021985 346.6762 9.260862e-06 975.8232 166.22197
0.00081790896 0.0 0.0009116892 1312.6306 6.353e-42 0.0 33.416092 0.00021869098
0.0 1117.4845 472.90546 39.114975 1069.6075 427.3408 8.456024 1115.6995
0.0 0.0 0.0 0.0 0.0 0.0 0.0 0.0
0.0 0.0 0.0 0.0 0.0 0.0 0.0 0.0
0.0 0.0 0.0 0.0 0.0 0.0 0.0 0.0
0.0 0.0 0.0 0.0 0.0 0.0 0.0 0.0
0.0 0.0 0.0 0.0 0.0 0.0 0.0 0.0
0.0 0.0 0.0 0.0 0.0 0.0 0.0 0.0
0.0 0.0 0.0 0.0 0.0 0.0 0.0 0.0
0.0 0.0 0.0 0.0 0.0 0.0 0.0 0.0
00000000: 0000 0000 126c 8144 0000 0000 7fef 2b44
00000010: 0000 0000 0000 0000 3acd 823e 0993 0944
00000020: bf98 7845 b7a8 9d44 15fb cf32 0000 0000
00000030: b2e9 5945 0000 0000 0000 0000 eacd 5745
00000040: 6aaf 8745 049e bd44 0000 0000 f1bc aa3c
00000050: e22d 9d43 0000 0000 0000 0000 2987 e640
00000060: fbcb 333b c5e5 ef3e 0000 0000 0000 0000
00000070: c75d 4a45 34e6 6045 0000 0000 0000 0000
00000080: 0000 0000 eedc 2244 e8db 2039 7a7b cc44
00000090: 0000 0000 0000 0000 1be9 3a45 4df2 2c01
000000a0: 9f18 0f45 e406 e844 d492 0f40 1535 403d
000000b0: ccba 8e44 4289 b402 e23e 4845 c00c 0744
000000c0: aa1b a336 0000 0000 18c3 0e37 dc6a 8645
000000d0: 0000 0000 0000 0000 c11e df42 950a ee35
000000e0: 0000 0000 df80 6445 0c33 c244 d874 ff42
000000f0: 966b 5c45 3620 ae44 0310 d641 7833 6445
00000100: 0000 0000 0000 0000 0000 0000 0000 0000
00000110: 0000 0000 0000 0000 0000 0000 0000 0000
00000120: 0000 0000 0000 0000 0000 0000 0000 0000
00000130: 0000 0000 0000 0000 0000 0000 0000 0000
00000140: 0000 0000 0000 0000 0000 0000 0000 0000
00000150: 0000 0000 0000 0000 0000 0000 0000 0000
00000160: 0000 0000 0000 0000 0000 0000 0000 0000
00000170: 0000 0000 0000 0000 0000 0000 0000 0000
00000180: 0000 0000 0000 0000 0000 0000 0000 0000
00000190: 0000 0000 0000 0000 0000 0000 0000 0000
000001a0: 0000 0000 0000 0000 0000 0000 0000 0000
000001b0: 0000 0000 0000 0000 0000 0000 0000 0000
000001c0: 0000 0000 0000 0000 0000 0000 0000 0000
000001d0: 0000 0000 0000 0000 0000 0000 0000 0000
000001e0: 0000 0000 0000 0000 0000 0000 0000 0000
000001f0: 0000 0000 0000 0000 0000 0000 0000 0000
00000200: 0000 0000 a239 9d43 0000 0000 adb0 5143
00000210: 0000 0000 0000 0000 0844 803d a7f3 2643
00000220: dbfd 9744 3420 bf43 be38 8e39 0000 0000
00000230: ab93 8444 2cab fb2e 0000 0000 1305 8344
00000240: 4862 a544 993c e843 0000 0000 13e2 0f3c
00000250: 9d3d be42 0000 0000 0000 0000 c5a7 1740
00000260: 3769 b23a 4613 c33d 0000 0000 0000 0000
00000270: a61c 7644 b498 8844 d40e 042f 0000 0000
00000280: 0000 0000 1e63 4743 3540 363b 3913 f943
00000290: 0000 0000 0000 0000 9bd8 6244 4dd2 2938
000002a0: 1da5 2e44 bb0a 0c44 47f4 3a3f c1c9 c43c
000002b0: 8e56 ad43 195f 1b37 aff4 7344 d338 2643
000002c0: f168 563a 0000 0000 6dfe 6e3a 2e14 a444
000002d0: b611 0000 0000 0000 14aa 0542 6a50 6539
000002e0: 0000 0000 81af 8b44 e673 ec43 bc75 1c42
000002f0: 71b3 8544 9fab d543 e04b 0741 6276 8b44
00000300: 0000 0000 0000 0000 0000 0000 0000 0000
00000310: 0000 0000 0000 0000 0000 0000 0000 0000
00000320: 0000 0000 0000 0000 0000 0000 0000 0000
00000330: 0000 0000 0000 0000 0000 0000 0000 0000
00000340: 0000 0000 0000 0000 0000 0000 0000 0000
00000350: 0000 0000 0000 0000 0000 0000 0000 0000
00000360: 0000 0000 0000 0000 0000 0000 0000 0000
00000370: 0000 0000 0000 0000 0000 0000 0000 0000
00000380: 0000 0000 0000 0000 0000 0000 0000 0000
00000390: 0000 0000 0000 0000 0000 0000 0000 0000
000003a0: 0000 0000 0000 0000 0000 0000 0000 0000
000003b0: 0000 0000 0000 0000 0000 0000 0000 0000
000003c0: 0000 0000 0000 0000 0000 0000 0000 0000
000003d0: 0000 0000 0000 0000 0000 0000 0000 0000
000003e0: 0000 0000 0000 0000 0000 0000 0000 0000
000003f0: 0000 0000 0000 0000 0000 0000 0000 0000

exp_avg f4 [64]
0.016077537 0.0 -0.0083721485 0.0 -0.032788657 0.0025070487 0.011869487 0.0
-0.028162375 0.0 -0.023192305 -7.2814765e-18 -0.011523973 0.014271691 0.0074509224 -0.01497564
-0.0027603917 -0.035997473 -0.0025452145 -0.0046668937 -0.017157894 0.019554822 -0.028899891 -0.011081822
-0.016894106 -0.00058676366 -0.006466725 0.0016600125 -1.18483474e-35 -3.5378882e-05 -0.006901374 0.0010223149
0.0 0.01263891 -0.024947908 -0.019814823 -0.0117364805 -0.013253774 -2.078525e-05 -0.0014506966
0.0019122348 -0.006984046 0.0 0.025184086 -6.346304e-05 0.0 -0.021605246 -0.009824898
-0.00030630987 -0.00736511 -0.0066824467 -0.0025300113 0.0 0.0 -0.013132452 -0.022246104
0.005342137 -0.026187468 -0.025974909 0.0 0.01780953 -2.7011372e-05 -2.3520743e-14 -0.017858194
00000000: 0ab5 833c 0000 0000 562b 09bc 0000 0000
00000010: 664d 06bd 4c4d 243b 3d78 423c 0000 0000
00000020: c8b4 e6bc 0000 0000 cafd bdbc cd51 06a3
00000030: 0ccf 3cbc d0d3 693c de26 f43b 635c 75bc
00000040: b0e7 34bb 1672 13bd 9dcd 26bb beec 98bb
00000050: b68e 8cbc 6f31 a03c 77bf ecbc 8890 35bc
00000060: 8265 8abc 0bd1 19ba d2e6 d3bb c794 d93a
00000070: 8afc 7b85 c963 14b8 ec24 e2bb 32ff 853a
00000080: 0000 0000 6e13 4f3c 8e5f ccbc b252 a2bc
00000090: 5e4a 40bc 5b26 59bc fc5b aeb7 4d25 beba
000000a0: f4a3 fa3a 6dda e4bb 0000 0000 db4e ce3c
000000b0: 7617 85b8 0000 0000 7cfd b0bc 9cf8 20bc
000000c0: 3798 a0b9 0557 f1bb 6df8 dabb 8cce 25bb
000000d0: 0000 0000 0000 0000 7f29 57bc 763d b6bc
000000e0: 180d af3b 1a87 d6bc 55c9 d4bc 0000 0000
000000f0: 4be5 913c 7b96 e2b7 24db d3a8 594b 92bc
